program(1.0)
[buildInfo = dict<tensor<string, []>, tensor<string, []>>({{"coremlc-component-MIL", "4.28.2"}, {"coremlc-version", "1429.0.0"}})]
{
    func main<ios15>(tensor<fp32, [?, 224, 224, 3]> resnet50_input) [FlexibleShapeInformation = tuple<tuple<tensor<string, []>, dict<tensor<string, []>, tensor<int32, [?]>>>>((("DefaultShapes", {{"resnet50_input", [1, 224, 224, 3]}})))] {
            tensor<string, []> pad_0_mode_0 = const()[name = tensor<string, []>("pad_0_mode_0"), val = tensor<string, []>("constant")];
            tensor<int32, [4]> transpose_161_perm_0 = const()[name = tensor<string, []>("transpose_161_perm_0"), val = tensor<int32, [4]>([0, 3, 1, 2])];
            tensor<string, []> resnet50_input_to_fp16_dtype_0 = const()[name = tensor<string, []>("resnet50_input_to_fp16_dtype_0"), val = tensor<string, []>("fp16")];
            tensor<int32, [8]> pad_2_pad_0 = const()[name = tensor<string, []>("pad_2_pad_0"), val = tensor<int32, [8]>([0, 0, 0, 0, 3, 3, 3, 3])];
            tensor<fp16, []> const_0_to_fp16 = const()[name = tensor<string, []>("const_0_to_fp16"), val = tensor<fp16, []>(0x0p+0)];
            tensor<fp16, [?, 224, 224, 3]> cast_181 = cast(dtype = resnet50_input_to_fp16_dtype_0, x = resnet50_input);
            tensor<fp16, [?, 3, 224, 224]> transpose_164 = transpose(perm = transpose_161_perm_0, x = cast_181);
            tensor<fp16, [?, 3, 230, 230]> pad_2_cast = pad(constant_val = const_0_to_fp16, mode = pad_0_mode_0, pad = pad_2_pad_0, x = transpose_164);
            tensor<string, []> sequential_resnet50_conv1_conv_Conv2Dx_pad_type_0 = const()[name = tensor<string, []>("sequential_resnet50_conv1_conv_Conv2Dx_pad_type_0"), val = tensor<string, []>("valid")];
            tensor<int32, [2]> sequential_resnet50_conv1_conv_Conv2Dx_strides_0 = const()[name = tensor<string, []>("sequential_resnet50_conv1_conv_Conv2Dx_strides_0"), val = tensor<int32, [2]>([2, 2])];
            tensor<int32, [2]> sequential_resnet50_conv1_conv_Conv2Dx_dilations_0 = const()[name = tensor<string, []>("sequential_resnet50_conv1_conv_Conv2Dx_dilations_0"), val = tensor<int32, [2]>([1, 1])];
            tensor<int32, []> sequential_resnet50_conv1_conv_Conv2Dx_groups_0 = const()[name = tensor<string, []>("sequential_resnet50_conv1_conv_Conv2Dx_groups_0"), val = tensor<int32, []>(1)];
            tensor<int32, [4]> sequential_resnet50_conv1_conv_Conv2Dx_pad_0 = const()[name = tensor<string, []>("sequential_resnet50_conv1_conv_Conv2Dx_pad_0"), val = tensor<int32, [4]>([0, 0, 0, 0])];
            tensor<fp16, [64, 3, 7, 7]> sequential_resnet50_conv1_bn_FusedBatchNormV3_nchw_weight_0_to_fp16 = const()[name = tensor<string, []>("sequential_resnet50_conv1_bn_FusedBatchNormV3_nchw_weight_0_to_fp16"), val = tensor<fp16, [64, 3, 7, 7]>(BLOBFILE(path = tensor<string, []>("@model_path/weights/weight.bin"), offset = tensor<uint64, []>(64)))];
            tensor<fp16, [64]> sequential_resnet50_conv1_bn_FusedBatchNormV3_nchw_bias_0_to_fp16 = const()[name = tensor<string, []>("sequential_resnet50_conv1_bn_FusedBatchNormV3_nchw_bias_0_to_fp16"), val = tensor<fp16, [64]>(BLOBFILE(path = tensor<string, []>("@model_path/weights/weight.bin"), offset = tensor<uint64, []>(18944)))];
            tensor<fp16, [?, 64, 112, 112]> sequential_resnet50_conv1_bn_FusedBatchNormV3_nchw_cast = conv(bias = sequential_resnet50_conv1_bn_FusedBatchNormV3_nchw_bias_0_to_fp16, dilations = sequential_resnet50_conv1_conv_Conv2Dx_dilations_0, groups = sequential_resnet50_conv1_conv_Conv2Dx_groups_0, pad = sequential_resnet50_conv1_conv_Conv2Dx_pad_0, pad_type = sequential_resnet50_conv1_conv_Conv2Dx_pad_type_0, strides = sequential_resnet50_conv1_conv_Conv2Dx_strides_0, weight = sequential_resnet50_conv1_bn_FusedBatchNormV3_nchw_weight_0_to_fp16, x = pad_2_cast);
            tensor<fp16, [?, 64, 112, 112]> sequential_resnet50_conv1_relu_Relu_cast = relu(x = sequential_resnet50_conv1_bn_FusedBatchNormV3_nchw_cast);
            tensor<string, []> pad_1_mode_0 = const()[name = tensor<string, []>("pad_1_mode_0"), val = tensor<string, []>("constant")];
            tensor<int32, [8]> const_3 = const()[name = tensor<string, []>("const_3"), val = tensor<int32, [8]>([0, 0, 0, 0, 1, 1, 1, 1])];
            tensor<fp16, []> const_1_to_fp16 = const()[name = tensor<string, []>("const_1_to_fp16"), val = tensor<fp16, []>(0x0p+0)];
            tensor<fp16, [?, 64, 114, 114]> pad_1_cast = pad(constant_val = const_1_to_fp16, mode = pad_1_mode_0, pad = const_3, x = sequential_resnet50_conv1_relu_Relu_cast);
            tensor<int32, [2]> max_pool_0_kernel_sizes_0 = const()[name = tensor<string, []>("max_pool_0_kernel_sizes_0"), val = tensor<int32, [2]>([3, 3])];
            tensor<int32, [2]> max_pool_0_strides_0 = const()[name = tensor<string, []>("max_pool_0_strides_0"), val = tensor<int32, [2]>([2, 2])];
            tensor<string, []> max_pool_0_pad_type_0 = const()[name = tensor<string, []>("max_pool_0_pad_type_0"), val = tensor<string, []>("valid")];
            tensor<int32, [4]> max_pool_0_pad_0 = const()[name = tensor<string, []>("max_pool_0_pad_0"), val = tensor<int32, [4]>([0, 0, 0, 0])];
            tensor<bool, []> max_pool_0_ceil_mode_0 = const()[name = tensor<string, []>("max_pool_0_ceil_mode_0"), val = tensor<bool, []>(false)];
            tensor<fp16, [?, 64, 56, 56]> max_pool_0_cast = max_pool(ceil_mode = max_pool_0_ceil_mode_0, kernel_sizes = max_pool_0_kernel_sizes_0, pad = max_pool_0_pad_0, pad_type = max_pool_0_pad_type_0, strides = max_pool_0_strides_0, x = pad_1_cast);
            tensor<string, []> sequential_resnet50_conv2_block1_0_conv_Conv2Dx_pad_type_0 = const()[name = tensor<string, []>("sequential_resnet50_conv2_block1_0_conv_Conv2Dx_pad_type_0"), val = tensor<string, []>("valid")];
            tensor<int32, [2]> sequential_resnet50_conv2_block1_0_conv_Conv2Dx_strides_0 = const()[name = tensor<string, []>("sequential_resnet50_conv2_block1_0_conv_Conv2Dx_strides_0"), val = tensor<int32, [2]>([1, 1])];
            tensor<int32, [2]> sequential_resnet50_conv2_block1_0_conv_Conv2Dx_dilations_0 = const()[name = tensor<string, []>("sequential_resnet50_conv2_block1_0_conv_Conv2Dx_dilations_0"), val = tensor<int32, [2]>([1, 1])];
            tensor<int32, []> sequential_resnet50_conv2_block1_0_conv_Conv2Dx_groups_0 = const()[name = tensor<string, []>("sequential_resnet50_conv2_block1_0_conv_Conv2Dx_groups_0"), val = tensor<int32, []>(1)];
            tensor<int32, [4]> sequential_resnet50_conv2_block1_0_conv_Conv2Dx_pad_0 = const()[name = tensor<string, []>("sequential_resnet50_conv2_block1_0_conv_Conv2Dx_pad_0"), val = tensor<int32, [4]>([0, 0, 0, 0])];
            tensor<fp16, [256, 64, 1, 1]> sequential_resnet50_conv2_block1_0_bn_FusedBatchNormV3_nchw_weight_0_to_fp16 = const()[name = tensor<string, []>("sequential_resnet50_conv2_block1_0_bn_FusedBatchNormV3_nchw_weight_0_to_fp16"), val = tensor<fp16, [256, 64, 1, 1]>(BLOBFILE(path = tensor<string, []>("@model_path/weights/weight.bin"), offset = tensor<uint64, []>(19136)))];
            tensor<fp16, [256]> sequential_resnet50_conv2_block1_0_bn_FusedBatchNormV3_nchw_bias_0_to_fp16 = const()[name = tensor<string, []>("sequential_resnet50_conv2_block1_0_bn_FusedBatchNormV3_nchw_bias_0_to_fp16"), val = tensor<fp16, [256]>(BLOBFILE(path = tensor<string, []>("@model_path/weights/weight.bin"), offset = tensor<uint64, []>(51968)))];
            tensor<fp16, [?, 256, 56, 56]> sequential_resnet50_conv2_block1_0_bn_FusedBatchNormV3_nchw_cast = conv(bias = sequential_resnet50_conv2_block1_0_bn_FusedBatchNormV3_nchw_bias_0_to_fp16, dilations = sequential_resnet50_conv2_block1_0_conv_Conv2Dx_dilations_0, groups = sequential_resnet50_conv2_block1_0_conv_Conv2Dx_groups_0, pad = sequential_resnet50_conv2_block1_0_conv_Conv2Dx_pad_0, pad_type = sequential_resnet50_conv2_block1_0_conv_Conv2Dx_pad_type_0, strides = sequential_resnet50_conv2_block1_0_conv_Conv2Dx_strides_0, weight = sequential_resnet50_conv2_block1_0_bn_FusedBatchNormV3_nchw_weight_0_to_fp16, x = max_pool_0_cast);
            tensor<string, []> sequential_resnet50_conv2_block1_1_conv_Conv2Dx_pad_type_0 = const()[name = tensor<string, []>("sequential_resnet50_conv2_block1_1_conv_Conv2Dx_pad_type_0"), val = tensor<string, []>("valid")];
            tensor<int32, [2]> sequential_resnet50_conv2_block1_1_conv_Conv2Dx_strides_0 = const()[name = tensor<string, []>("sequential_resnet50_conv2_block1_1_conv_Conv2Dx_strides_0"), val = tensor<int32, [2]>([1, 1])];
            tensor<int32, [2]> sequential_resnet50_conv2_block1_1_conv_Conv2Dx_dilations_0 = const()[name = tensor<string, []>("sequential_resnet50_conv2_block1_1_conv_Conv2Dx_dilations_0"), val = tensor<int32, [2]>([1, 1])];
            tensor<int32, []> sequential_resnet50_conv2_block1_1_conv_Conv2Dx_groups_0 = const()[name = tensor<string, []>("sequential_resnet50_conv2_block1_1_conv_Conv2Dx_groups_0"), val = tensor<int32, []>(1)];
            tensor<int32, [4]> sequential_resnet50_conv2_block1_1_conv_Conv2Dx_pad_0 = const()[name = tensor<string, []>("sequential_resnet50_conv2_block1_1_conv_Conv2Dx_pad_0"), val = tensor<int32, [4]>([0, 0, 0, 0])];
            tensor<fp16, [64, 64, 1, 1]> sequential_resnet50_conv2_block1_1_bn_FusedBatchNormV3_nchw_weight_0_to_fp16 = const()[name = tensor<string, []>("sequential_resnet50_conv2_block1_1_bn_FusedBatchNormV3_nchw_weight_0_to_fp16"), val = tensor<fp16, [64, 64, 1, 1]>(BLOBFILE(path = tensor<string, []>("@model_path/weights/weight.bin"), offset = tensor<uint64, []>(52544)))];
            tensor<fp16, [64]> sequential_resnet50_conv2_block1_1_bn_FusedBatchNormV3_nchw_bias_0_to_fp16 = const()[name = tensor<string, []>("sequential_resnet50_conv2_block1_1_bn_FusedBatchNormV3_nchw_bias_0_to_fp16"), val = tensor<fp16, [64]>(BLOBFILE(path = tensor<string, []>("@model_path/weights/weight.bin"), offset = tensor<uint64, []>(60800)))];
            tensor<fp16, [?, 64, 56, 56]> sequential_resnet50_conv2_block1_1_bn_FusedBatchNormV3_nchw_cast = conv(bias = sequential_resnet50_conv2_block1_1_bn_FusedBatchNormV3_nchw_bias_0_to_fp16, dilations = sequential_resnet50_conv2_block1_1_conv_Conv2Dx_dilations_0, groups = sequential_resnet50_conv2_block1_1_conv_Conv2Dx_groups_0, pad = sequential_resnet50_conv2_block1_1_conv_Conv2Dx_pad_0, pad_type = sequential_resnet50_conv2_block1_1_conv_Conv2Dx_pad_type_0, strides = sequential_resnet50_conv2_block1_1_conv_Conv2Dx_strides_0, weight = sequential_resnet50_conv2_block1_1_bn_FusedBatchNormV3_nchw_weight_0_to_fp16, x = max_pool_0_cast);
            tensor<fp16, [?, 64, 56, 56]> sequential_resnet50_conv2_block1_1_relu_Relu_cast = relu(x = sequential_resnet50_conv2_block1_1_bn_FusedBatchNormV3_nchw_cast);
            tensor<string, []> sequential_resnet50_conv2_block1_2_conv_Conv2Dx_pad_type_0 = const()[name = tensor<string, []>("sequential_resnet50_conv2_block1_2_conv_Conv2Dx_pad_type_0"), val = tensor<string, []>("same")];
            tensor<int32, [2]> sequential_resnet50_conv2_block1_2_conv_Conv2Dx_strides_0 = const()[name = tensor<string, []>("sequential_resnet50_conv2_block1_2_conv_Conv2Dx_strides_0"), val = tensor<int32, [2]>([1, 1])];
            tensor<int32, [2]> sequential_resnet50_conv2_block1_2_conv_Conv2Dx_dilations_0 = const()[name = tensor<string, []>("sequential_resnet50_conv2_block1_2_conv_Conv2Dx_dilations_0"), val = tensor<int32, [2]>([1, 1])];
            tensor<int32, []> sequential_resnet50_conv2_block1_2_conv_Conv2Dx_groups_0 = const()[name = tensor<string, []>("sequential_resnet50_conv2_block1_2_conv_Conv2Dx_groups_0"), val = tensor<int32, []>(1)];
            tensor<int32, [4]> sequential_resnet50_conv2_block1_2_conv_Conv2Dx_pad_0 = const()[name = tensor<string, []>("sequential_resnet50_conv2_block1_2_conv_Conv2Dx_pad_0"), val = tensor<int32, [4]>([0, 0, 0, 0])];
            tensor<fp16, [64, 64, 3, 3]> sequential_resnet50_conv2_block1_2_bn_FusedBatchNormV3_nchw_weight_0_to_fp16 = const()[name = tensor<string, []>("sequential_resnet50_conv2_block1_2_bn_FusedBatchNormV3_nchw_weight_0_to_fp16"), val = tensor<fp16, [64, 64, 3, 3]>(BLOBFILE(path = tensor<string, []>("@model_path/weights/weight.bin"), offset = tensor<uint64, []>(60992)))];
            tensor<fp16, [64]> sequential_resnet50_conv2_block1_2_bn_FusedBatchNormV3_nchw_bias_0_to_fp16 = const()[name = tensor<string, []>("sequential_resnet50_conv2_block1_2_bn_FusedBatchNormV3_nchw_bias_0_to_fp16"), val = tensor<fp16, [64]>(BLOBFILE(path = tensor<string, []>("@model_path/weights/weight.bin"), offset = tensor<uint64, []>(134784)))];
            tensor<fp16, [?, 64, 56, 56]> sequential_resnet50_conv2_block1_2_bn_FusedBatchNormV3_nchw_cast = conv(bias = sequential_resnet50_conv2_block1_2_bn_FusedBatchNormV3_nchw_bias_0_to_fp16, dilations = sequential_resnet50_conv2_block1_2_conv_Conv2Dx_dilations_0, groups = sequential_resnet50_conv2_block1_2_conv_Conv2Dx_groups_0, pad = sequential_resnet50_conv2_block1_2_conv_Conv2Dx_pad_0, pad_type = sequential_resnet50_conv2_block1_2_conv_Conv2Dx_pad_type_0, strides = sequential_resnet50_conv2_block1_2_conv_Conv2Dx_strides_0, weight = sequential_resnet50_conv2_block1_2_bn_FusedBatchNormV3_nchw_weight_0_to_fp16, x = sequential_resnet50_conv2_block1_1_relu_Relu_cast);
            tensor<fp16, [?, 64, 56, 56]> sequential_resnet50_conv2_block1_2_relu_Relu_cast = relu(x = sequential_resnet50_conv2_block1_2_bn_FusedBatchNormV3_nchw_cast);
            tensor<string, []> sequential_resnet50_conv2_block1_3_conv_Conv2Dx_pad_type_0 = const()[name = tensor<string, []>("sequential_resnet50_conv2_block1_3_conv_Conv2Dx_pad_type_0"), val = tensor<string, []>("valid")];
            tensor<int32, [2]> sequential_resnet50_conv2_block1_3_conv_Conv2Dx_strides_0 = const()[name = tensor<string, []>("sequential_resnet50_conv2_block1_3_conv_Conv2Dx_strides_0"), val = tensor<int32, [2]>([1, 1])];
            tensor<int32, [2]> sequential_resnet50_conv2_block1_3_conv_Conv2Dx_dilations_0 = const()[name = tensor<string, []>("sequential_resnet50_conv2_block1_3_conv_Conv2Dx_dilations_0"), val = tensor<int32, [2]>([1, 1])];
            tensor<int32, []> sequential_resnet50_conv2_block1_3_conv_Conv2Dx_groups_0 = const()[name = tensor<string, []>("sequential_resnet50_conv2_block1_3_conv_Conv2Dx_groups_0"), val = tensor<int32, []>(1)];
            tensor<int32, [4]> sequential_resnet50_conv2_block1_3_conv_Conv2Dx_pad_0 = const()[name = tensor<string, []>("sequential_resnet50_conv2_block1_3_conv_Conv2Dx_pad_0"), val = tensor<int32, [4]>([0, 0, 0, 0])];
            tensor<fp16, [256, 64, 1, 1]> sequential_resnet50_conv2_block1_3_bn_FusedBatchNormV3_nchw_weight_0_to_fp16 = const()[name = tensor<string, []>("sequential_resnet50_conv2_block1_3_bn_FusedBatchNormV3_nchw_weight_0_to_fp16"), val = tensor<fp16, [256, 64, 1, 1]>(BLOBFILE(path = tensor<string, []>("@model_path/weights/weight.bin"), offset = tensor<uint64, []>(134976)))];
            tensor<fp16, [256]> sequential_resnet50_conv2_block1_3_bn_FusedBatchNormV3_nchw_bias_0_to_fp16 = const()[name = tensor<string, []>("sequential_resnet50_conv2_block1_3_bn_FusedBatchNormV3_nchw_bias_0_to_fp16"), val = tensor<fp16, [256]>(BLOBFILE(path = tensor<string, []>("@model_path/weights/weight.bin"), offset = tensor<uint64, []>(167808)))];
            tensor<fp16, [?, 256, 56, 56]> sequential_resnet50_conv2_block1_3_bn_FusedBatchNormV3_nchw_cast = conv(bias = sequential_resnet50_conv2_block1_3_bn_FusedBatchNormV3_nchw_bias_0_to_fp16, dilations = sequential_resnet50_conv2_block1_3_conv_Conv2Dx_dilations_0, groups = sequential_resnet50_conv2_block1_3_conv_Conv2Dx_groups_0, pad = sequential_resnet50_conv2_block1_3_conv_Conv2Dx_pad_0, pad_type = sequential_resnet50_conv2_block1_3_conv_Conv2Dx_pad_type_0, strides = sequential_resnet50_conv2_block1_3_conv_Conv2Dx_strides_0, weight = sequential_resnet50_conv2_block1_3_bn_FusedBatchNormV3_nchw_weight_0_to_fp16, x = sequential_resnet50_conv2_block1_2_relu_Relu_cast);
            tensor<fp16, [?, 256, 56, 56]> sequential_resnet50_conv2_block1_add_add_cast = add(x = sequential_resnet50_conv2_block1_0_bn_FusedBatchNormV3_nchw_cast, y = sequential_resnet50_conv2_block1_3_bn_FusedBatchNormV3_nchw_cast);
            tensor<fp16, [?, 256, 56, 56]> sequential_resnet50_conv2_block1_out_Relu_cast = relu(x = sequential_resnet50_conv2_block1_add_add_cast);
            tensor<string, []> sequential_resnet50_conv2_block2_1_conv_Conv2Dx_pad_type_0 = const()[name = tensor<string, []>("sequential_resnet50_conv2_block2_1_conv_Conv2Dx_pad_type_0"), val = tensor<string, []>("valid")];
            tensor<int32, [2]> sequential_resnet50_conv2_block2_1_conv_Conv2Dx_strides_0 = const()[name = tensor<string, []>("sequential_resnet50_conv2_block2_1_conv_Conv2Dx_strides_0"), val = tensor<int32, [2]>([1, 1])];
            tensor<int32, [2]> sequential_resnet50_conv2_block2_1_conv_Conv2Dx_dilations_0 = const()[name = tensor<string, []>("sequential_resnet50_conv2_block2_1_conv_Conv2Dx_dilations_0"), val = tensor<int32, [2]>([1, 1])];
            tensor<int32, []> sequential_resnet50_conv2_block2_1_conv_Conv2Dx_groups_0 = const()[name = tensor<string, []>("sequential_resnet50_conv2_block2_1_conv_Conv2Dx_groups_0"), val = tensor<int32, []>(1)];
            tensor<int32, [4]> sequential_resnet50_conv2_block2_1_conv_Conv2Dx_pad_0 = const()[name = tensor<string, []>("sequential_resnet50_conv2_block2_1_conv_Conv2Dx_pad_0"), val = tensor<int32, [4]>([0, 0, 0, 0])];
            tensor<fp16, [64, 256, 1, 1]> sequential_resnet50_conv2_block2_1_bn_FusedBatchNormV3_nchw_weight_0_to_fp16 = const()[name = tensor<string, []>("sequential_resnet50_conv2_block2_1_bn_FusedBatchNormV3_nchw_weight_0_to_fp16"), val = tensor<fp16, [64, 256, 1, 1]>(BLOBFILE(path = tensor<string, []>("@model_path/weights/weight.bin"), offset = tensor<uint64, []>(168384)))];
            tensor<fp16, [64]> sequential_resnet50_conv2_block2_1_bn_FusedBatchNormV3_nchw_bias_0_to_fp16 = const()[name = tensor<string, []>("sequential_resnet50_conv2_block2_1_bn_FusedBatchNormV3_nchw_bias_0_to_fp16"), val = tensor<fp16, [64]>(BLOBFILE(path = tensor<string, []>("@model_path/weights/weight.bin"), offset = tensor<uint64, []>(201216)))];
            tensor<fp16, [?, 64, 56, 56]> sequential_resnet50_conv2_block2_1_bn_FusedBatchNormV3_nchw_cast = conv(bias = sequential_resnet50_conv2_block2_1_bn_FusedBatchNormV3_nchw_bias_0_to_fp16, dilations = sequential_resnet50_conv2_block2_1_conv_Conv2Dx_dilations_0, groups = sequential_resnet50_conv2_block2_1_conv_Conv2Dx_groups_0, pad = sequential_resnet50_conv2_block2_1_conv_Conv2Dx_pad_0, pad_type = sequential_resnet50_conv2_block2_1_conv_Conv2Dx_pad_type_0, strides = sequential_resnet50_conv2_block2_1_conv_Conv2Dx_strides_0, weight = sequential_resnet50_conv2_block2_1_bn_FusedBatchNormV3_nchw_weight_0_to_fp16, x = sequential_resnet50_conv2_block1_out_Relu_cast);
            tensor<fp16, [?, 64, 56, 56]> sequential_resnet50_conv2_block2_1_relu_Relu_cast = relu(x = sequential_resnet50_conv2_block2_1_bn_FusedBatchNormV3_nchw_cast);
            tensor<string, []> sequential_resnet50_conv2_block2_2_conv_Conv2Dx_pad_type_0 = const()[name = tensor<string, []>("sequential_resnet50_conv2_block2_2_conv_Conv2Dx_pad_type_0"), val = tensor<string, []>("same")];
            tensor<int32, [2]> sequential_resnet50_conv2_block2_2_conv_Conv2Dx_strides_0 = const()[name = tensor<string, []>("sequential_resnet50_conv2_block2_2_conv_Conv2Dx_strides_0"), val = tensor<int32, [2]>([1, 1])];
            tensor<int32, [2]> sequential_resnet50_conv2_block2_2_conv_Conv2Dx_dilations_0 = const()[name = tensor<string, []>("sequential_resnet50_conv2_block2_2_conv_Conv2Dx_dilations_0"), val = tensor<int32, [2]>([1, 1])];
            tensor<int32, []> sequential_resnet50_conv2_block2_2_conv_Conv2Dx_groups_0 = const()[name = tensor<string, []>("sequential_resnet50_conv2_block2_2_conv_Conv2Dx_groups_0"), val = tensor<int32, []>(1)];
            tensor<int32, [4]> sequential_resnet50_conv2_block2_2_conv_Conv2Dx_pad_0 = const()[name = tensor<string, []>("sequential_resnet50_conv2_block2_2_conv_Conv2Dx_pad_0"), val = tensor<int32, [4]>([0, 0, 0, 0])];
            tensor<fp16, [64, 64, 3, 3]> sequential_resnet50_conv2_block2_2_bn_FusedBatchNormV3_nchw_weight_0_to_fp16 = const()[name = tensor<string, []>("sequential_resnet50_conv2_block2_2_bn_FusedBatchNormV3_nchw_weight_0_to_fp16"), val = tensor<fp16, [64, 64, 3, 3]>(BLOBFILE(path = tensor<string, []>("@model_path/weights/weight.bin"), offset = tensor<uint64, []>(201408)))];
            tensor<fp16, [64]> sequential_resnet50_conv2_block2_2_bn_FusedBatchNormV3_nchw_bias_0_to_fp16 = const()[name = tensor<string, []>("sequential_resnet50_conv2_block2_2_bn_FusedBatchNormV3_nchw_bias_0_to_fp16"), val = tensor<fp16, [64]>(BLOBFILE(path = tensor<string, []>("@model_path/weights/weight.bin"), offset = tensor<uint64, []>(275200)))];
            tensor<fp16, [?, 64, 56, 56]> sequential_resnet50_conv2_block2_2_bn_FusedBatchNormV3_nchw_cast = conv(bias = sequential_resnet50_conv2_block2_2_bn_FusedBatchNormV3_nchw_bias_0_to_fp16, dilations = sequential_resnet50_conv2_block2_2_conv_Conv2Dx_dilations_0, groups = sequential_resnet50_conv2_block2_2_conv_Conv2Dx_groups_0, pad = sequential_resnet50_conv2_block2_2_conv_Conv2Dx_pad_0, pad_type = sequential_resnet50_conv2_block2_2_conv_Conv2Dx_pad_type_0, strides = sequential_resnet50_conv2_block2_2_conv_Conv2Dx_strides_0, weight = sequential_resnet50_conv2_block2_2_bn_FusedBatchNormV3_nchw_weight_0_to_fp16, x = sequential_resnet50_conv2_block2_1_relu_Relu_cast);
            tensor<fp16, [?, 64, 56, 56]> sequential_resnet50_conv2_block2_2_relu_Relu_cast = relu(x = sequential_resnet50_conv2_block2_2_bn_FusedBatchNormV3_nchw_cast);
            tensor<string, []> sequential_resnet50_conv2_block2_3_conv_Conv2Dx_pad_type_0 = const()[name = tensor<string, []>("sequential_resnet50_conv2_block2_3_conv_Conv2Dx_pad_type_0"), val = tensor<string, []>("valid")];
            tensor<int32, [2]> sequential_resnet50_conv2_block2_3_conv_Conv2Dx_strides_0 = const()[name = tensor<string, []>("sequential_resnet50_conv2_block2_3_conv_Conv2Dx_strides_0"), val = tensor<int32, [2]>([1, 1])];
            tensor<int32, [2]> sequential_resnet50_conv2_block2_3_conv_Conv2Dx_dilations_0 = const()[name = tensor<string, []>("sequential_resnet50_conv2_block2_3_conv_Conv2Dx_dilations_0"), val = tensor<int32, [2]>([1, 1])];
            tensor<int32, []> sequential_resnet50_conv2_block2_3_conv_Conv2Dx_groups_0 = const()[name = tensor<string, []>("sequential_resnet50_conv2_block2_3_conv_Conv2Dx_groups_0"), val = tensor<int32, []>(1)];
            tensor<int32, [4]> sequential_resnet50_conv2_block2_3_conv_Conv2Dx_pad_0 = const()[name = tensor<string, []>("sequential_resnet50_conv2_block2_3_conv_Conv2Dx_pad_0"), val = tensor<int32, [4]>([0, 0, 0, 0])];
            tensor<fp16, [256, 64, 1, 1]> sequential_resnet50_conv2_block2_3_bn_FusedBatchNormV3_nchw_weight_0_to_fp16 = const()[name = tensor<string, []>("sequential_resnet50_conv2_block2_3_bn_FusedBatchNormV3_nchw_weight_0_to_fp16"), val = tensor<fp16, [256, 64, 1, 1]>(BLOBFILE(path = tensor<string, []>("@model_path/weights/weight.bin"), offset = tensor<uint64, []>(275392)))];
            tensor<fp16, [256]> sequential_resnet50_conv2_block2_3_bn_FusedBatchNormV3_nchw_bias_0_to_fp16 = const()[name = tensor<string, []>("sequential_resnet50_conv2_block2_3_bn_FusedBatchNormV3_nchw_bias_0_to_fp16"), val = tensor<fp16, [256]>(BLOBFILE(path = tensor<string, []>("@model_path/weights/weight.bin"), offset = tensor<uint64, []>(308224)))];
            tensor<fp16, [?, 256, 56, 56]> sequential_resnet50_conv2_block2_3_bn_FusedBatchNormV3_nchw_cast = conv(bias = sequential_resnet50_conv2_block2_3_bn_FusedBatchNormV3_nchw_bias_0_to_fp16, dilations = sequential_resnet50_conv2_block2_3_conv_Conv2Dx_dilations_0, groups = sequential_resnet50_conv2_block2_3_conv_Conv2Dx_groups_0, pad = sequential_resnet50_conv2_block2_3_conv_Conv2Dx_pad_0, pad_type = sequential_resnet50_conv2_block2_3_conv_Conv2Dx_pad_type_0, strides = sequential_resnet50_conv2_block2_3_conv_Conv2Dx_strides_0, weight = sequential_resnet50_conv2_block2_3_bn_FusedBatchNormV3_nchw_weight_0_to_fp16, x = sequential_resnet50_conv2_block2_2_relu_Relu_cast);
            tensor<fp16, [?, 256, 56, 56]> sequential_resnet50_conv2_block2_add_add_cast = add(x = sequential_resnet50_conv2_block1_out_Relu_cast, y = sequential_resnet50_conv2_block2_3_bn_FusedBatchNormV3_nchw_cast);
            tensor<fp16, [?, 256, 56, 56]> sequential_resnet50_conv2_block2_out_Relu_cast = relu(x = sequential_resnet50_conv2_block2_add_add_cast);
            tensor<string, []> sequential_resnet50_conv2_block3_1_conv_Conv2Dx_pad_type_0 = const()[name = tensor<string, []>("sequential_resnet50_conv2_block3_1_conv_Conv2Dx_pad_type_0"), val = tensor<string, []>("valid")];
            tensor<int32, [2]> sequential_resnet50_conv2_block3_1_conv_Conv2Dx_strides_0 = const()[name = tensor<string, []>("sequential_resnet50_conv2_block3_1_conv_Conv2Dx_strides_0"), val = tensor<int32, [2]>([1, 1])];
            tensor<int32, [2]> sequential_resnet50_conv2_block3_1_conv_Conv2Dx_dilations_0 = const()[name = tensor<string, []>("sequential_resnet50_conv2_block3_1_conv_Conv2Dx_dilations_0"), val = tensor<int32, [2]>([1, 1])];
            tensor<int32, []> sequential_resnet50_conv2_block3_1_conv_Conv2Dx_groups_0 = const()[name = tensor<string, []>("sequential_resnet50_conv2_block3_1_conv_Conv2Dx_groups_0"), val = tensor<int32, []>(1)];
            tensor<int32, [4]> sequential_resnet50_conv2_block3_1_conv_Conv2Dx_pad_0 = const()[name = tensor<string, []>("sequential_resnet50_conv2_block3_1_conv_Conv2Dx_pad_0"), val = tensor<int32, [4]>([0, 0, 0, 0])];
            tensor<fp16, [64, 256, 1, 1]> sequential_resnet50_conv2_block3_1_bn_FusedBatchNormV3_nchw_weight_0_to_fp16 = const()[name = tensor<string, []>("sequential_resnet50_conv2_block3_1_bn_FusedBatchNormV3_nchw_weight_0_to_fp16"), val = tensor<fp16, [64, 256, 1, 1]>(BLOBFILE(path = tensor<string, []>("@model_path/weights/weight.bin"), offset = tensor<uint64, []>(308800)))];
            tensor<fp16, [64]> sequential_resnet50_conv2_block3_1_bn_FusedBatchNormV3_nchw_bias_0_to_fp16 = const()[name = tensor<string, []>("sequential_resnet50_conv2_block3_1_bn_FusedBatchNormV3_nchw_bias_0_to_fp16"), val = tensor<fp16, [64]>(BLOBFILE(path = tensor<string, []>("@model_path/weights/weight.bin"), offset = tensor<uint64, []>(341632)))];
            tensor<fp16, [?, 64, 56, 56]> sequential_resnet50_conv2_block3_1_bn_FusedBatchNormV3_nchw_cast = conv(bias = sequential_resnet50_conv2_block3_1_bn_FusedBatchNormV3_nchw_bias_0_to_fp16, dilations = sequential_resnet50_conv2_block3_1_conv_Conv2Dx_dilations_0, groups = sequential_resnet50_conv2_block3_1_conv_Conv2Dx_groups_0, pad = sequential_resnet50_conv2_block3_1_conv_Conv2Dx_pad_0, pad_type = sequential_resnet50_conv2_block3_1_conv_Conv2Dx_pad_type_0, strides = sequential_resnet50_conv2_block3_1_conv_Conv2Dx_strides_0, weight = sequential_resnet50_conv2_block3_1_bn_FusedBatchNormV3_nchw_weight_0_to_fp16, x = sequential_resnet50_conv2_block2_out_Relu_cast);
            tensor<fp16, [?, 64, 56, 56]> sequential_resnet50_conv2_block3_1_relu_Relu_cast = relu(x = sequential_resnet50_conv2_block3_1_bn_FusedBatchNormV3_nchw_cast);
            tensor<string, []> sequential_resnet50_conv2_block3_2_conv_Conv2Dx_pad_type_0 = const()[name = tensor<string, []>("sequential_resnet50_conv2_block3_2_conv_Conv2Dx_pad_type_0"), val = tensor<string, []>("same")];
            tensor<int32, [2]> sequential_resnet50_conv2_block3_2_conv_Conv2Dx_strides_0 = const()[name = tensor<string, []>("sequential_resnet50_conv2_block3_2_conv_Conv2Dx_strides_0"), val = tensor<int32, [2]>([1, 1])];
            tensor<int32, [2]> sequential_resnet50_conv2_block3_2_conv_Conv2Dx_dilations_0 = const()[name = tensor<string, []>("sequential_resnet50_conv2_block3_2_conv_Conv2Dx_dilations_0"), val = tensor<int32, [2]>([1, 1])];
            tensor<int32, []> sequential_resnet50_conv2_block3_2_conv_Conv2Dx_groups_0 = const()[name = tensor<string, []>("sequential_resnet50_conv2_block3_2_conv_Conv2Dx_groups_0"), val = tensor<int32, []>(1)];
            tensor<int32, [4]> sequential_resnet50_conv2_block3_2_conv_Conv2Dx_pad_0 = const()[name = tensor<string, []>("sequential_resnet50_conv2_block3_2_conv_Conv2Dx_pad_0"), val = tensor<int32, [4]>([0, 0, 0, 0])];
            tensor<fp16, [64, 64, 3, 3]> sequential_resnet50_conv2_block3_2_bn_FusedBatchNormV3_nchw_weight_0_to_fp16 = const()[name = tensor<string, []>("sequential_resnet50_conv2_block3_2_bn_FusedBatchNormV3_nchw_weight_0_to_fp16"), val = tensor<fp16, [64, 64, 3, 3]>(BLOBFILE(path = tensor<string, []>("@model_path/weights/weight.bin"), offset = tensor<uint64, []>(341824)))];
            tensor<fp16, [64]> sequential_resnet50_conv2_block3_2_bn_FusedBatchNormV3_nchw_bias_0_to_fp16 = const()[name = tensor<string, []>("sequential_resnet50_conv2_block3_2_bn_FusedBatchNormV3_nchw_bias_0_to_fp16"), val = tensor<fp16, [64]>(BLOBFILE(path = tensor<string, []>("@model_path/weights/weight.bin"), offset = tensor<uint64, []>(415616)))];
            tensor<fp16, [?, 64, 56, 56]> sequential_resnet50_conv2_block3_2_bn_FusedBatchNormV3_nchw_cast = conv(bias = sequential_resnet50_conv2_block3_2_bn_FusedBatchNormV3_nchw_bias_0_to_fp16, dilations = sequential_resnet50_conv2_block3_2_conv_Conv2Dx_dilations_0, groups = sequential_resnet50_conv2_block3_2_conv_Conv2Dx_groups_0, pad = sequential_resnet50_conv2_block3_2_conv_Conv2Dx_pad_0, pad_type = sequential_resnet50_conv2_block3_2_conv_Conv2Dx_pad_type_0, strides = sequential_resnet50_conv2_block3_2_conv_Conv2Dx_strides_0, weight = sequential_resnet50_conv2_block3_2_bn_FusedBatchNormV3_nchw_weight_0_to_fp16, x = sequential_resnet50_conv2_block3_1_relu_Relu_cast);
            tensor<fp16, [?, 64, 56, 56]> sequential_resnet50_conv2_block3_2_relu_Relu_cast = relu(x = sequential_resnet50_conv2_block3_2_bn_FusedBatchNormV3_nchw_cast);
            tensor<string, []> sequential_resnet50_conv2_block3_3_conv_Conv2Dx_pad_type_0 = const()[name = tensor<string, []>("sequential_resnet50_conv2_block3_3_conv_Conv2Dx_pad_type_0"), val = tensor<string, []>("valid")];
            tensor<int32, [2]> sequential_resnet50_conv2_block3_3_conv_Conv2Dx_strides_0 = const()[name = tensor<string, []>("sequential_resnet50_conv2_block3_3_conv_Conv2Dx_strides_0"), val = tensor<int32, [2]>([1, 1])];
            tensor<int32, [2]> sequential_resnet50_conv2_block3_3_conv_Conv2Dx_dilations_0 = const()[name = tensor<string, []>("sequential_resnet50_conv2_block3_3_conv_Conv2Dx_dilations_0"), val = tensor<int32, [2]>([1, 1])];
            tensor<int32, []> sequential_resnet50_conv2_block3_3_conv_Conv2Dx_groups_0 = const()[name = tensor<string, []>("sequential_resnet50_conv2_block3_3_conv_Conv2Dx_groups_0"), val = tensor<int32, []>(1)];
            tensor<int32, [4]> sequential_resnet50_conv2_block3_3_conv_Conv2Dx_pad_0 = const()[name = tensor<string, []>("sequential_resnet50_conv2_block3_3_conv_Conv2Dx_pad_0"), val = tensor<int32, [4]>([0, 0, 0, 0])];
            tensor<fp16, [256, 64, 1, 1]> sequential_resnet50_conv2_block3_3_bn_FusedBatchNormV3_nchw_weight_0_to_fp16 = const()[name = tensor<string, []>("sequential_resnet50_conv2_block3_3_bn_FusedBatchNormV3_nchw_weight_0_to_fp16"), val = tensor<fp16, [256, 64, 1, 1]>(BLOBFILE(path = tensor<string, []>("@model_path/weights/weight.bin"), offset = tensor<uint64, []>(415808)))];
            tensor<fp16, [256]> sequential_resnet50_conv2_block3_3_bn_FusedBatchNormV3_nchw_bias_0_to_fp16 = const()[name = tensor<string, []>("sequential_resnet50_conv2_block3_3_bn_FusedBatchNormV3_nchw_bias_0_to_fp16"), val = tensor<fp16, [256]>(BLOBFILE(path = tensor<string, []>("@model_path/weights/weight.bin"), offset = tensor<uint64, []>(448640)))];
            tensor<fp16, [?, 256, 56, 56]> sequential_resnet50_conv2_block3_3_bn_FusedBatchNormV3_nchw_cast = conv(bias = sequential_resnet50_conv2_block3_3_bn_FusedBatchNormV3_nchw_bias_0_to_fp16, dilations = sequential_resnet50_conv2_block3_3_conv_Conv2Dx_dilations_0, groups = sequential_resnet50_conv2_block3_3_conv_Conv2Dx_groups_0, pad = sequential_resnet50_conv2_block3_3_conv_Conv2Dx_pad_0, pad_type = sequential_resnet50_conv2_block3_3_conv_Conv2Dx_pad_type_0, strides = sequential_resnet50_conv2_block3_3_conv_Conv2Dx_strides_0, weight = sequential_resnet50_conv2_block3_3_bn_FusedBatchNormV3_nchw_weight_0_to_fp16, x = sequential_resnet50_conv2_block3_2_relu_Relu_cast);
            tensor<fp16, [?, 256, 56, 56]> sequential_resnet50_conv2_block3_add_add_cast = add(x = sequential_resnet50_conv2_block2_out_Relu_cast, y = sequential_resnet50_conv2_block3_3_bn_FusedBatchNormV3_nchw_cast);
            tensor<fp16, [?, 256, 56, 56]> sequential_resnet50_conv2_block3_out_Relu_cast = relu(x = sequential_resnet50_conv2_block3_add_add_cast);
            tensor<string, []> sequential_resnet50_conv3_block1_0_conv_Conv2Dx_pad_type_0 = const()[name = tensor<string, []>("sequential_resnet50_conv3_block1_0_conv_Conv2Dx_pad_type_0"), val = tensor<string, []>("valid")];
            tensor<int32, [2]> sequential_resnet50_conv3_block1_0_conv_Conv2Dx_strides_0 = const()[name = tensor<string, []>("sequential_resnet50_conv3_block1_0_conv_Conv2Dx_strides_0"), val = tensor<int32, [2]>([2, 2])];
            tensor<int32, [2]> sequential_resnet50_conv3_block1_0_conv_Conv2Dx_dilations_0 = const()[name = tensor<string, []>("sequential_resnet50_conv3_block1_0_conv_Conv2Dx_dilations_0"), val = tensor<int32, [2]>([1, 1])];
            tensor<int32, []> sequential_resnet50_conv3_block1_0_conv_Conv2Dx_groups_0 = const()[name = tensor<string, []>("sequential_resnet50_conv3_block1_0_conv_Conv2Dx_groups_0"), val = tensor<int32, []>(1)];
            tensor<int32, [4]> sequential_resnet50_conv3_block1_0_conv_Conv2Dx_pad_0 = const()[name = tensor<string, []>("sequential_resnet50_conv3_block1_0_conv_Conv2Dx_pad_0"), val = tensor<int32, [4]>([0, 0, 0, 0])];
            tensor<fp16, [512, 256, 1, 1]> sequential_resnet50_conv3_block1_0_bn_FusedBatchNormV3_nchw_weight_0_to_fp16 = const()[name = tensor<string, []>("sequential_resnet50_conv3_block1_0_bn_FusedBatchNormV3_nchw_weight_0_to_fp16"), val = tensor<fp16, [512, 256, 1, 1]>(BLOBFILE(path = tensor<string, []>("@model_path/weights/weight.bin"), offset = tensor<uint64, []>(449216)))];
            tensor<fp16, [512]> sequential_resnet50_conv3_block1_0_bn_FusedBatchNormV3_nchw_bias_0_to_fp16 = const()[name = tensor<string, []>("sequential_resnet50_conv3_block1_0_bn_FusedBatchNormV3_nchw_bias_0_to_fp16"), val = tensor<fp16, [512]>(BLOBFILE(path = tensor<string, []>("@model_path/weights/weight.bin"), offset = tensor<uint64, []>(711424)))];
            tensor<fp16, [?, 512, 28, 28]> sequential_resnet50_conv3_block1_0_bn_FusedBatchNormV3_nchw_cast = conv(bias = sequential_resnet50_conv3_block1_0_bn_FusedBatchNormV3_nchw_bias_0_to_fp16, dilations = sequential_resnet50_conv3_block1_0_conv_Conv2Dx_dilations_0, groups = sequential_resnet50_conv3_block1_0_conv_Conv2Dx_groups_0, pad = sequential_resnet50_conv3_block1_0_conv_Conv2Dx_pad_0, pad_type = sequential_resnet50_conv3_block1_0_conv_Conv2Dx_pad_type_0, strides = sequential_resnet50_conv3_block1_0_conv_Conv2Dx_strides_0, weight = sequential_resnet50_conv3_block1_0_bn_FusedBatchNormV3_nchw_weight_0_to_fp16, x = sequential_resnet50_conv2_block3_out_Relu_cast);
            tensor<string, []> sequential_resnet50_conv3_block1_1_conv_Conv2Dx_pad_type_0 = const()[name = tensor<string, []>("sequential_resnet50_conv3_block1_1_conv_Conv2Dx_pad_type_0"), val = tensor<string, []>("valid")];
            tensor<int32, [2]> sequential_resnet50_conv3_block1_1_conv_Conv2Dx_strides_0 = const()[name = tensor<string, []>("sequential_resnet50_conv3_block1_1_conv_Conv2Dx_strides_0"), val = tensor<int32, [2]>([2, 2])];
            tensor<int32, [2]> sequential_resnet50_conv3_block1_1_conv_Conv2Dx_dilations_0 = const()[name = tensor<string, []>("sequential_resnet50_conv3_block1_1_conv_Conv2Dx_dilations_0"), val = tensor<int32, [2]>([1, 1])];
            tensor<int32, []> sequential_resnet50_conv3_block1_1_conv_Conv2Dx_groups_0 = const()[name = tensor<string, []>("sequential_resnet50_conv3_block1_1_conv_Conv2Dx_groups_0"), val = tensor<int32, []>(1)];
            tensor<int32, [4]> sequential_resnet50_conv3_block1_1_conv_Conv2Dx_pad_0 = const()[name = tensor<string, []>("sequential_resnet50_conv3_block1_1_conv_Conv2Dx_pad_0"), val = tensor<int32, [4]>([0, 0, 0, 0])];
            tensor<fp16, [128, 256, 1, 1]> sequential_resnet50_conv3_block1_1_bn_FusedBatchNormV3_nchw_weight_0_to_fp16 = const()[name = tensor<string, []>("sequential_resnet50_conv3_block1_1_bn_FusedBatchNormV3_nchw_weight_0_to_fp16"), val = tensor<fp16, [128, 256, 1, 1]>(BLOBFILE(path = tensor<string, []>("@model_path/weights/weight.bin"), offset = tensor<uint64, []>(712512)))];
            tensor<fp16, [128]> sequential_resnet50_conv3_block1_1_bn_FusedBatchNormV3_nchw_bias_0_to_fp16 = const()[name = tensor<string, []>("sequential_resnet50_conv3_block1_1_bn_FusedBatchNormV3_nchw_bias_0_to_fp16"), val = tensor<fp16, [128]>(BLOBFILE(path = tensor<string, []>("@model_path/weights/weight.bin"), offset = tensor<uint64, []>(778112)))];
            tensor<fp16, [?, 128, 28, 28]> sequential_resnet50_conv3_block1_1_bn_FusedBatchNormV3_nchw_cast = conv(bias = sequential_resnet50_conv3_block1_1_bn_FusedBatchNormV3_nchw_bias_0_to_fp16, dilations = sequential_resnet50_conv3_block1_1_conv_Conv2Dx_dilations_0, groups = sequential_resnet50_conv3_block1_1_conv_Conv2Dx_groups_0, pad = sequential_resnet50_conv3_block1_1_conv_Conv2Dx_pad_0, pad_type = sequential_resnet50_conv3_block1_1_conv_Conv2Dx_pad_type_0, strides = sequential_resnet50_conv3_block1_1_conv_Conv2Dx_strides_0, weight = sequential_resnet50_conv3_block1_1_bn_FusedBatchNormV3_nchw_weight_0_to_fp16, x = sequential_resnet50_conv2_block3_out_Relu_cast);
            tensor<fp16, [?, 128, 28, 28]> sequential_resnet50_conv3_block1_1_relu_Relu_cast = relu(x = sequential_resnet50_conv3_block1_1_bn_FusedBatchNormV3_nchw_cast);
            tensor<string, []> sequential_resnet50_conv3_block1_2_conv_Conv2Dx_pad_type_0 = const()[name = tensor<string, []>("sequential_resnet50_conv3_block1_2_conv_Conv2Dx_pad_type_0"), val = tensor<string, []>("same")];
            tensor<int32, [2]> sequential_resnet50_conv3_block1_2_conv_Conv2Dx_strides_0 = const()[name = tensor<string, []>("sequential_resnet50_conv3_block1_2_conv_Conv2Dx_strides_0"), val = tensor<int32, [2]>([1, 1])];
            tensor<int32, [2]> sequential_resnet50_conv3_block1_2_conv_Conv2Dx_dilations_0 = const()[name = tensor<string, []>("sequential_resnet50_conv3_block1_2_conv_Conv2Dx_dilations_0"), val = tensor<int32, [2]>([1, 1])];
            tensor<int32, []> sequential_resnet50_conv3_block1_2_conv_Conv2Dx_groups_0 = const()[name = tensor<string, []>("sequential_resnet50_conv3_block1_2_conv_Conv2Dx_groups_0"), val = tensor<int32, []>(1)];
            tensor<int32, [4]> sequential_resnet50_conv3_block1_2_conv_Conv2Dx_pad_0 = const()[name = tensor<string, []>("sequential_resnet50_conv3_block1_2_conv_Conv2Dx_pad_0"), val = tensor<int32, [4]>([0, 0, 0, 0])];
            tensor<fp16, [128, 128, 3, 3]> sequential_resnet50_conv3_block1_2_bn_FusedBatchNormV3_nchw_weight_0_to_fp16 = const()[name = tensor<string, []>("sequential_resnet50_conv3_block1_2_bn_FusedBatchNormV3_nchw_weight_0_to_fp16"), val = tensor<fp16, [128, 128, 3, 3]>(BLOBFILE(path = tensor<string, []>("@model_path/weights/weight.bin"), offset = tensor<uint64, []>(778432)))];
            tensor<fp16, [128]> sequential_resnet50_conv3_block1_2_bn_FusedBatchNormV3_nchw_bias_0_to_fp16 = const()[name = tensor<string, []>("sequential_resnet50_conv3_block1_2_bn_FusedBatchNormV3_nchw_bias_0_to_fp16"), val = tensor<fp16, [128]>(BLOBFILE(path = tensor<string, []>("@model_path/weights/weight.bin"), offset = tensor<uint64, []>(1073408)))];
            tensor<fp16, [?, 128, 28, 28]> sequential_resnet50_conv3_block1_2_bn_FusedBatchNormV3_nchw_cast = conv(bias = sequential_resnet50_conv3_block1_2_bn_FusedBatchNormV3_nchw_bias_0_to_fp16, dilations = sequential_resnet50_conv3_block1_2_conv_Conv2Dx_dilations_0, groups = sequential_resnet50_conv3_block1_2_conv_Conv2Dx_groups_0, pad = sequential_resnet50_conv3_block1_2_conv_Conv2Dx_pad_0, pad_type = sequential_resnet50_conv3_block1_2_conv_Conv2Dx_pad_type_0, strides = sequential_resnet50_conv3_block1_2_conv_Conv2Dx_strides_0, weight = sequential_resnet50_conv3_block1_2_bn_FusedBatchNormV3_nchw_weight_0_to_fp16, x = sequential_resnet50_conv3_block1_1_relu_Relu_cast);
            tensor<fp16, [?, 128, 28, 28]> sequential_resnet50_conv3_block1_2_relu_Relu_cast = relu(x = sequential_resnet50_conv3_block1_2_bn_FusedBatchNormV3_nchw_cast);
            tensor<string, []> sequential_resnet50_conv3_block1_3_conv_Conv2Dx_pad_type_0 = const()[name = tensor<string, []>("sequential_resnet50_conv3_block1_3_conv_Conv2Dx_pad_type_0"), val = tensor<string, []>("valid")];
            tensor<int32, [2]> sequential_resnet50_conv3_block1_3_conv_Conv2Dx_strides_0 = const()[name = tensor<string, []>("sequential_resnet50_conv3_block1_3_conv_Conv2Dx_strides_0"), val = tensor<int32, [2]>([1, 1])];
            tensor<int32, [2]> sequential_resnet50_conv3_block1_3_conv_Conv2Dx_dilations_0 = const()[name = tensor<string, []>("sequential_resnet50_conv3_block1_3_conv_Conv2Dx_dilations_0"), val = tensor<int32, [2]>([1, 1])];
            tensor<int32, []> sequential_resnet50_conv3_block1_3_conv_Conv2Dx_groups_0 = const()[name = tensor<string, []>("sequential_resnet50_conv3_block1_3_conv_Conv2Dx_groups_0"), val = tensor<int32, []>(1)];
            tensor<int32, [4]> sequential_resnet50_conv3_block1_3_conv_Conv2Dx_pad_0 = const()[name = tensor<string, []>("sequential_resnet50_conv3_block1_3_conv_Conv2Dx_pad_0"), val = tensor<int32, [4]>([0, 0, 0, 0])];
            tensor<fp16, [512, 128, 1, 1]> sequential_resnet50_conv3_block1_3_bn_FusedBatchNormV3_nchw_weight_0_to_fp16 = const()[name = tensor<string, []>("sequential_resnet50_conv3_block1_3_bn_FusedBatchNormV3_nchw_weight_0_to_fp16"), val = tensor<fp16, [512, 128, 1, 1]>(BLOBFILE(path = tensor<string, []>("@model_path/weights/weight.bin"), offset = tensor<uint64, []>(1073728)))];
            tensor<fp16, [512]> sequential_resnet50_conv3_block1_3_bn_FusedBatchNormV3_nchw_bias_0_to_fp16 = const()[name = tensor<string, []>("sequential_resnet50_conv3_block1_3_bn_FusedBatchNormV3_nchw_bias_0_to_fp16"), val = tensor<fp16, [512]>(BLOBFILE(path = tensor<string, []>("@model_path/weights/weight.bin"), offset = tensor<uint64, []>(1204864)))];
            tensor<fp16, [?, 512, 28, 28]> sequential_resnet50_conv3_block1_3_bn_FusedBatchNormV3_nchw_cast = conv(bias = sequential_resnet50_conv3_block1_3_bn_FusedBatchNormV3_nchw_bias_0_to_fp16, dilations = sequential_resnet50_conv3_block1_3_conv_Conv2Dx_dilations_0, groups = sequential_resnet50_conv3_block1_3_conv_Conv2Dx_groups_0, pad = sequential_resnet50_conv3_block1_3_conv_Conv2Dx_pad_0, pad_type = sequential_resnet50_conv3_block1_3_conv_Conv2Dx_pad_type_0, strides = sequential_resnet50_conv3_block1_3_conv_Conv2Dx_strides_0, weight = sequential_resnet50_conv3_block1_3_bn_FusedBatchNormV3_nchw_weight_0_to_fp16, x = sequential_resnet50_conv3_block1_2_relu_Relu_cast);
            tensor<fp16, [?, 512, 28, 28]> sequential_resnet50_conv3_block1_add_add_cast = add(x = sequential_resnet50_conv3_block1_0_bn_FusedBatchNormV3_nchw_cast, y = sequential_resnet50_conv3_block1_3_bn_FusedBatchNormV3_nchw_cast);
            tensor<fp16, [?, 512, 28, 28]> sequential_resnet50_conv3_block1_out_Relu_cast = relu(x = sequential_resnet50_conv3_block1_add_add_cast);
            tensor<string, []> sequential_resnet50_conv3_block2_1_conv_Conv2Dx_pad_type_0 = const()[name = tensor<string, []>("sequential_resnet50_conv3_block2_1_conv_Conv2Dx_pad_type_0"), val = tensor<string, []>("valid")];
            tensor<int32, [2]> sequential_resnet50_conv3_block2_1_conv_Conv2Dx_strides_0 = const()[name = tensor<string, []>("sequential_resnet50_conv3_block2_1_conv_Conv2Dx_strides_0"), val = tensor<int32, [2]>([1, 1])];
            tensor<int32, [2]> sequential_resnet50_conv3_block2_1_conv_Conv2Dx_dilations_0 = const()[name = tensor<string, []>("sequential_resnet50_conv3_block2_1_conv_Conv2Dx_dilations_0"), val = tensor<int32, [2]>([1, 1])];
            tensor<int32, []> sequential_resnet50_conv3_block2_1_conv_Conv2Dx_groups_0 = const()[name = tensor<string, []>("sequential_resnet50_conv3_block2_1_conv_Conv2Dx_groups_0"), val = tensor<int32, []>(1)];
            tensor<int32, [4]> sequential_resnet50_conv3_block2_1_conv_Conv2Dx_pad_0 = const()[name = tensor<string, []>("sequential_resnet50_conv3_block2_1_conv_Conv2Dx_pad_0"), val = tensor<int32, [4]>([0, 0, 0, 0])];
            tensor<fp16, [128, 512, 1, 1]> sequential_resnet50_conv3_block2_1_bn_FusedBatchNormV3_nchw_weight_0_to_fp16 = const()[name = tensor<string, []>("sequential_resnet50_conv3_block2_1_bn_FusedBatchNormV3_nchw_weight_0_to_fp16"), val = tensor<fp16, [128, 512, 1, 1]>(BLOBFILE(path = tensor<string, []>("@model_path/weights/weight.bin"), offset = tensor<uint64, []>(1205952)))];
            tensor<fp16, [128]> sequential_resnet50_conv3_block2_1_bn_FusedBatchNormV3_nchw_bias_0_to_fp16 = const()[name = tensor<string, []>("sequential_resnet50_conv3_block2_1_bn_FusedBatchNormV3_nchw_bias_0_to_fp16"), val = tensor<fp16, [128]>(BLOBFILE(path = tensor<string, []>("@model_path/weights/weight.bin"), offset = tensor<uint64, []>(1337088)))];
            tensor<fp16, [?, 128, 28, 28]> sequential_resnet50_conv3_block2_1_bn_FusedBatchNormV3_nchw_cast = conv(bias = sequential_resnet50_conv3_block2_1_bn_FusedBatchNormV3_nchw_bias_0_to_fp16, dilations = sequential_resnet50_conv3_block2_1_conv_Conv2Dx_dilations_0, groups = sequential_resnet50_conv3_block2_1_conv_Conv2Dx_groups_0, pad = sequential_resnet50_conv3_block2_1_conv_Conv2Dx_pad_0, pad_type = sequential_resnet50_conv3_block2_1_conv_Conv2Dx_pad_type_0, strides = sequential_resnet50_conv3_block2_1_conv_Conv2Dx_strides_0, weight = sequential_resnet50_conv3_block2_1_bn_FusedBatchNormV3_nchw_weight_0_to_fp16, x = sequential_resnet50_conv3_block1_out_Relu_cast);
            tensor<fp16, [?, 128, 28, 28]> sequential_resnet50_conv3_block2_1_relu_Relu_cast = relu(x = sequential_resnet50_conv3_block2_1_bn_FusedBatchNormV3_nchw_cast);
            tensor<string, []> sequential_resnet50_conv3_block2_2_conv_Conv2Dx_pad_type_0 = const()[name = tensor<string, []>("sequential_resnet50_conv3_block2_2_conv_Conv2Dx_pad_type_0"), val = tensor<string, []>("same")];
            tensor<int32, [2]> sequential_resnet50_conv3_block2_2_conv_Conv2Dx_strides_0 = const()[name = tensor<string, []>("sequential_resnet50_conv3_block2_2_conv_Conv2Dx_strides_0"), val = tensor<int32, [2]>([1, 1])];
            tensor<int32, [2]> sequential_resnet50_conv3_block2_2_conv_Conv2Dx_dilations_0 = const()[name = tensor<string, []>("sequential_resnet50_conv3_block2_2_conv_Conv2Dx_dilations_0"), val = tensor<int32, [2]>([1, 1])];
            tensor<int32, []> sequential_resnet50_conv3_block2_2_conv_Conv2Dx_groups_0 = const()[name = tensor<string, []>("sequential_resnet50_conv3_block2_2_conv_Conv2Dx_groups_0"), val = tensor<int32, []>(1)];
            tensor<int32, [4]> sequential_resnet50_conv3_block2_2_conv_Conv2Dx_pad_0 = const()[name = tensor<string, []>("sequential_resnet50_conv3_block2_2_conv_Conv2Dx_pad_0"), val = tensor<int32, [4]>([0, 0, 0, 0])];
            tensor<fp16, [128, 128, 3, 3]> sequential_resnet50_conv3_block2_2_bn_FusedBatchNormV3_nchw_weight_0_to_fp16 = const()[name = tensor<string, []>("sequential_resnet50_conv3_block2_2_bn_FusedBatchNormV3_nchw_weight_0_to_fp16"), val = tensor<fp16, [128, 128, 3, 3]>(BLOBFILE(path = tensor<string, []>("@model_path/weights/weight.bin"), offset = tensor<uint64, []>(1337408)))];
            tensor<fp16, [128]> sequential_resnet50_conv3_block2_2_bn_FusedBatchNormV3_nchw_bias_0_to_fp16 = const()[name = tensor<string, []>("sequential_resnet50_conv3_block2_2_bn_FusedBatchNormV3_nchw_bias_0_to_fp16"), val = tensor<fp16, [128]>(BLOBFILE(path = tensor<string, []>("@model_path/weights/weight.bin"), offset = tensor<uint64, []>(1632384)))];
            tensor<fp16, [?, 128, 28, 28]> sequential_resnet50_conv3_block2_2_bn_FusedBatchNormV3_nchw_cast = conv(bias = sequential_resnet50_conv3_block2_2_bn_FusedBatchNormV3_nchw_bias_0_to_fp16, dilations = sequential_resnet50_conv3_block2_2_conv_Conv2Dx_dilations_0, groups = sequential_resnet50_conv3_block2_2_conv_Conv2Dx_groups_0, pad = sequential_resnet50_conv3_block2_2_conv_Conv2Dx_pad_0, pad_type = sequential_resnet50_conv3_block2_2_conv_Conv2Dx_pad_type_0, strides = sequential_resnet50_conv3_block2_2_conv_Conv2Dx_strides_0, weight = sequential_resnet50_conv3_block2_2_bn_FusedBatchNormV3_nchw_weight_0_to_fp16, x = sequential_resnet50_conv3_block2_1_relu_Relu_cast);
            tensor<fp16, [?, 128, 28, 28]> sequential_resnet50_conv3_block2_2_relu_Relu_cast = relu(x = sequential_resnet50_conv3_block2_2_bn_FusedBatchNormV3_nchw_cast);
            tensor<string, []> sequential_resnet50_conv3_block2_3_conv_Conv2Dx_pad_type_0 = const()[name = tensor<string, []>("sequential_resnet50_conv3_block2_3_conv_Conv2Dx_pad_type_0"), val = tensor<string, []>("valid")];
            tensor<int32, [2]> sequential_resnet50_conv3_block2_3_conv_Conv2Dx_strides_0 = const()[name = tensor<string, []>("sequential_resnet50_conv3_block2_3_conv_Conv2Dx_strides_0"), val = tensor<int32, [2]>([1, 1])];
            tensor<int32, [2]> sequential_resnet50_conv3_block2_3_conv_Conv2Dx_dilations_0 = const()[name = tensor<string, []>("sequential_resnet50_conv3_block2_3_conv_Conv2Dx_dilations_0"), val = tensor<int32, [2]>([1, 1])];
            tensor<int32, []> sequential_resnet50_conv3_block2_3_conv_Conv2Dx_groups_0 = const()[name = tensor<string, []>("sequential_resnet50_conv3_block2_3_conv_Conv2Dx_groups_0"), val = tensor<int32, []>(1)];
            tensor<int32, [4]> sequential_resnet50_conv3_block2_3_conv_Conv2Dx_pad_0 = const()[name = tensor<string, []>("sequential_resnet50_conv3_block2_3_conv_Conv2Dx_pad_0"), val = tensor<int32, [4]>([0, 0, 0, 0])];
            tensor<fp16, [512, 128, 1, 1]> sequential_resnet50_conv3_block2_3_bn_FusedBatchNormV3_nchw_weight_0_to_fp16 = const()[name = tensor<string, []>("sequential_resnet50_conv3_block2_3_bn_FusedBatchNormV3_nchw_weight_0_to_fp16"), val = tensor<fp16, [512, 128, 1, 1]>(BLOBFILE(path = tensor<string, []>("@model_path/weights/weight.bin"), offset = tensor<uint64, []>(1632704)))];
            tensor<fp16, [512]> sequential_resnet50_conv3_block2_3_bn_FusedBatchNormV3_nchw_bias_0_to_fp16 = const()[name = tensor<string, []>("sequential_resnet50_conv3_block2_3_bn_FusedBatchNormV3_nchw_bias_0_to_fp16"), val = tensor<fp16, [512]>(BLOBFILE(path = tensor<string, []>("@model_path/weights/weight.bin"), offset = tensor<uint64, []>(1763840)))];
            tensor<fp16, [?, 512, 28, 28]> sequential_resnet50_conv3_block2_3_bn_FusedBatchNormV3_nchw_cast = conv(bias = sequential_resnet50_conv3_block2_3_bn_FusedBatchNormV3_nchw_bias_0_to_fp16, dilations = sequential_resnet50_conv3_block2_3_conv_Conv2Dx_dilations_0, groups = sequential_resnet50_conv3_block2_3_conv_Conv2Dx_groups_0, pad = sequential_resnet50_conv3_block2_3_conv_Conv2Dx_pad_0, pad_type = sequential_resnet50_conv3_block2_3_conv_Conv2Dx_pad_type_0, strides = sequential_resnet50_conv3_block2_3_conv_Conv2Dx_strides_0, weight = sequential_resnet50_conv3_block2_3_bn_FusedBatchNormV3_nchw_weight_0_to_fp16, x = sequential_resnet50_conv3_block2_2_relu_Relu_cast);
            tensor<fp16, [?, 512, 28, 28]> sequential_resnet50_conv3_block2_add_add_cast = add(x = sequential_resnet50_conv3_block1_out_Relu_cast, y = sequential_resnet50_conv3_block2_3_bn_FusedBatchNormV3_nchw_cast);
            tensor<fp16, [?, 512, 28, 28]> sequential_resnet50_conv3_block2_out_Relu_cast = relu(x = sequential_resnet50_conv3_block2_add_add_cast);
            tensor<string, []> sequential_resnet50_conv3_block3_1_conv_Conv2Dx_pad_type_0 = const()[name = tensor<string, []>("sequential_resnet50_conv3_block3_1_conv_Conv2Dx_pad_type_0"), val = tensor<string, []>("valid")];
            tensor<int32, [2]> sequential_resnet50_conv3_block3_1_conv_Conv2Dx_strides_0 = const()[name = tensor<string, []>("sequential_resnet50_conv3_block3_1_conv_Conv2Dx_strides_0"), val = tensor<int32, [2]>([1, 1])];
            tensor<int32, [2]> sequential_resnet50_conv3_block3_1_conv_Conv2Dx_dilations_0 = const()[name = tensor<string, []>("sequential_resnet50_conv3_block3_1_conv_Conv2Dx_dilations_0"), val = tensor<int32, [2]>([1, 1])];
            tensor<int32, []> sequential_resnet50_conv3_block3_1_conv_Conv2Dx_groups_0 = const()[name = tensor<string, []>("sequential_resnet50_conv3_block3_1_conv_Conv2Dx_groups_0"), val = tensor<int32, []>(1)];
            tensor<int32, [4]> sequential_resnet50_conv3_block3_1_conv_Conv2Dx_pad_0 = const()[name = tensor<string, []>("sequential_resnet50_conv3_block3_1_conv_Conv2Dx_pad_0"), val = tensor<int32, [4]>([0, 0, 0, 0])];
            tensor<fp16, [128, 512, 1, 1]> sequential_resnet50_conv3_block3_1_bn_FusedBatchNormV3_nchw_weight_0_to_fp16 = const()[name = tensor<string, []>("sequential_resnet50_conv3_block3_1_bn_FusedBatchNormV3_nchw_weight_0_to_fp16"), val = tensor<fp16, [128, 512, 1, 1]>(BLOBFILE(path = tensor<string, []>("@model_path/weights/weight.bin"), offset = tensor<uint64, []>(1764928)))];
            tensor<fp16, [128]> sequential_resnet50_conv3_block3_1_bn_FusedBatchNormV3_nchw_bias_0_to_fp16 = const()[name = tensor<string, []>("sequential_resnet50_conv3_block3_1_bn_FusedBatchNormV3_nchw_bias_0_to_fp16"), val = tensor<fp16, [128]>(BLOBFILE(path = tensor<string, []>("@model_path/weights/weight.bin"), offset = tensor<uint64, []>(1896064)))];
            tensor<fp16, [?, 128, 28, 28]> sequential_resnet50_conv3_block3_1_bn_FusedBatchNormV3_nchw_cast = conv(bias = sequential_resnet50_conv3_block3_1_bn_FusedBatchNormV3_nchw_bias_0_to_fp16, dilations = sequential_resnet50_conv3_block3_1_conv_Conv2Dx_dilations_0, groups = sequential_resnet50_conv3_block3_1_conv_Conv2Dx_groups_0, pad = sequential_resnet50_conv3_block3_1_conv_Conv2Dx_pad_0, pad_type = sequential_resnet50_conv3_block3_1_conv_Conv2Dx_pad_type_0, strides = sequential_resnet50_conv3_block3_1_conv_Conv2Dx_strides_0, weight = sequential_resnet50_conv3_block3_1_bn_FusedBatchNormV3_nchw_weight_0_to_fp16, x = sequential_resnet50_conv3_block2_out_Relu_cast);
            tensor<fp16, [?, 128, 28, 28]> sequential_resnet50_conv3_block3_1_relu_Relu_cast = relu(x = sequential_resnet50_conv3_block3_1_bn_FusedBatchNormV3_nchw_cast);
            tensor<string, []> sequential_resnet50_conv3_block3_2_conv_Conv2Dx_pad_type_0 = const()[name = tensor<string, []>("sequential_resnet50_conv3_block3_2_conv_Conv2Dx_pad_type_0"), val = tensor<string, []>("same")];
            tensor<int32, [2]> sequential_resnet50_conv3_block3_2_conv_Conv2Dx_strides_0 = const()[name = tensor<string, []>("sequential_resnet50_conv3_block3_2_conv_Conv2Dx_strides_0"), val = tensor<int32, [2]>([1, 1])];
            tensor<int32, [2]> sequential_resnet50_conv3_block3_2_conv_Conv2Dx_dilations_0 = const()[name = tensor<string, []>("sequential_resnet50_conv3_block3_2_conv_Conv2Dx_dilations_0"), val = tensor<int32, [2]>([1, 1])];
            tensor<int32, []> sequential_resnet50_conv3_block3_2_conv_Conv2Dx_groups_0 = const()[name = tensor<string, []>("sequential_resnet50_conv3_block3_2_conv_Conv2Dx_groups_0"), val = tensor<int32, []>(1)];
            tensor<int32, [4]> sequential_resnet50_conv3_block3_2_conv_Conv2Dx_pad_0 = const()[name = tensor<string, []>("sequential_resnet50_conv3_block3_2_conv_Conv2Dx_pad_0"), val = tensor<int32, [4]>([0, 0, 0, 0])];
            tensor<fp16, [128, 128, 3, 3]> sequential_resnet50_conv3_block3_2_bn_FusedBatchNormV3_nchw_weight_0_to_fp16 = const()[name = tensor<string, []>("sequential_resnet50_conv3_block3_2_bn_FusedBatchNormV3_nchw_weight_0_to_fp16"), val = tensor<fp16, [128, 128, 3, 3]>(BLOBFILE(path = tensor<string, []>("@model_path/weights/weight.bin"), offset = tensor<uint64, []>(1896384)))];
            tensor<fp16, [128]> sequential_resnet50_conv3_block3_2_bn_FusedBatchNormV3_nchw_bias_0_to_fp16 = const()[name = tensor<string, []>("sequential_resnet50_conv3_block3_2_bn_FusedBatchNormV3_nchw_bias_0_to_fp16"), val = tensor<fp16, [128]>(BLOBFILE(path = tensor<string, []>("@model_path/weights/weight.bin"), offset = tensor<uint64, []>(2191360)))];
            tensor<fp16, [?, 128, 28, 28]> sequential_resnet50_conv3_block3_2_bn_FusedBatchNormV3_nchw_cast = conv(bias = sequential_resnet50_conv3_block3_2_bn_FusedBatchNormV3_nchw_bias_0_to_fp16, dilations = sequential_resnet50_conv3_block3_2_conv_Conv2Dx_dilations_0, groups = sequential_resnet50_conv3_block3_2_conv_Conv2Dx_groups_0, pad = sequential_resnet50_conv3_block3_2_conv_Conv2Dx_pad_0, pad_type = sequential_resnet50_conv3_block3_2_conv_Conv2Dx_pad_type_0, strides = sequential_resnet50_conv3_block3_2_conv_Conv2Dx_strides_0, weight = sequential_resnet50_conv3_block3_2_bn_FusedBatchNormV3_nchw_weight_0_to_fp16, x = sequential_resnet50_conv3_block3_1_relu_Relu_cast);
            tensor<fp16, [?, 128, 28, 28]> sequential_resnet50_conv3_block3_2_relu_Relu_cast = relu(x = sequential_resnet50_conv3_block3_2_bn_FusedBatchNormV3_nchw_cast);
            tensor<string, []> sequential_resnet50_conv3_block3_3_conv_Conv2Dx_pad_type_0 = const()[name = tensor<string, []>("sequential_resnet50_conv3_block3_3_conv_Conv2Dx_pad_type_0"), val = tensor<string, []>("valid")];
            tensor<int32, [2]> sequential_resnet50_conv3_block3_3_conv_Conv2Dx_strides_0 = const()[name = tensor<string, []>("sequential_resnet50_conv3_block3_3_conv_Conv2Dx_strides_0"), val = tensor<int32, [2]>([1, 1])];
            tensor<int32, [2]> sequential_resnet50_conv3_block3_3_conv_Conv2Dx_dilations_0 = const()[name = tensor<string, []>("sequential_resnet50_conv3_block3_3_conv_Conv2Dx_dilations_0"), val = tensor<int32, [2]>([1, 1])];
            tensor<int32, []> sequential_resnet50_conv3_block3_3_conv_Conv2Dx_groups_0 = const()[name = tensor<string, []>("sequential_resnet50_conv3_block3_3_conv_Conv2Dx_groups_0"), val = tensor<int32, []>(1)];
            tensor<int32, [4]> sequential_resnet50_conv3_block3_3_conv_Conv2Dx_pad_0 = const()[name = tensor<string, []>("sequential_resnet50_conv3_block3_3_conv_Conv2Dx_pad_0"), val = tensor<int32, [4]>([0, 0, 0, 0])];
            tensor<fp16, [512, 128, 1, 1]> sequential_resnet50_conv3_block3_3_bn_FusedBatchNormV3_nchw_weight_0_to_fp16 = const()[name = tensor<string, []>("sequential_resnet50_conv3_block3_3_bn_FusedBatchNormV3_nchw_weight_0_to_fp16"), val = tensor<fp16, [512, 128, 1, 1]>(BLOBFILE(path = tensor<string, []>("@model_path/weights/weight.bin"), offset = tensor<uint64, []>(2191680)))];
            tensor<fp16, [512]> sequential_resnet50_conv3_block3_3_bn_FusedBatchNormV3_nchw_bias_0_to_fp16 = const()[name = tensor<string, []>("sequential_resnet50_conv3_block3_3_bn_FusedBatchNormV3_nchw_bias_0_to_fp16"), val = tensor<fp16, [512]>(BLOBFILE(path = tensor<string, []>("@model_path/weights/weight.bin"), offset = tensor<uint64, []>(2322816)))];
            tensor<fp16, [?, 512, 28, 28]> sequential_resnet50_conv3_block3_3_bn_FusedBatchNormV3_nchw_cast = conv(bias = sequential_resnet50_conv3_block3_3_bn_FusedBatchNormV3_nchw_bias_0_to_fp16, dilations = sequential_resnet50_conv3_block3_3_conv_Conv2Dx_dilations_0, groups = sequential_resnet50_conv3_block3_3_conv_Conv2Dx_groups_0, pad = sequential_resnet50_conv3_block3_3_conv_Conv2Dx_pad_0, pad_type = sequential_resnet50_conv3_block3_3_conv_Conv2Dx_pad_type_0, strides = sequential_resnet50_conv3_block3_3_conv_Conv2Dx_strides_0, weight = sequential_resnet50_conv3_block3_3_bn_FusedBatchNormV3_nchw_weight_0_to_fp16, x = sequential_resnet50_conv3_block3_2_relu_Relu_cast);
            tensor<fp16, [?, 512, 28, 28]> sequential_resnet50_conv3_block3_add_add_cast = add(x = sequential_resnet50_conv3_block2_out_Relu_cast, y = sequential_resnet50_conv3_block3_3_bn_FusedBatchNormV3_nchw_cast);
            tensor<fp16, [?, 512, 28, 28]> sequential_resnet50_conv3_block3_out_Relu_cast = relu(x = sequential_resnet50_conv3_block3_add_add_cast);
            tensor<string, []> sequential_resnet50_conv3_block4_1_conv_Conv2Dx_pad_type_0 = const()[name = tensor<string, []>("sequential_resnet50_conv3_block4_1_conv_Conv2Dx_pad_type_0"), val = tensor<string, []>("valid")];
            tensor<int32, [2]> sequential_resnet50_conv3_block4_1_conv_Conv2Dx_strides_0 = const()[name = tensor<string, []>("sequential_resnet50_conv3_block4_1_conv_Conv2Dx_strides_0"), val = tensor<int32, [2]>([1, 1])];
            tensor<int32, [2]> sequential_resnet50_conv3_block4_1_conv_Conv2Dx_dilations_0 = const()[name = tensor<string, []>("sequential_resnet50_conv3_block4_1_conv_Conv2Dx_dilations_0"), val = tensor<int32, [2]>([1, 1])];
            tensor<int32, []> sequential_resnet50_conv3_block4_1_conv_Conv2Dx_groups_0 = const()[name = tensor<string, []>("sequential_resnet50_conv3_block4_1_conv_Conv2Dx_groups_0"), val = tensor<int32, []>(1)];
            tensor<int32, [4]> sequential_resnet50_conv3_block4_1_conv_Conv2Dx_pad_0 = const()[name = tensor<string, []>("sequential_resnet50_conv3_block4_1_conv_Conv2Dx_pad_0"), val = tensor<int32, [4]>([0, 0, 0, 0])];
            tensor<fp16, [128, 512, 1, 1]> sequential_resnet50_conv3_block4_1_bn_FusedBatchNormV3_nchw_weight_0_to_fp16 = const()[name = tensor<string, []>("sequential_resnet50_conv3_block4_1_bn_FusedBatchNormV3_nchw_weight_0_to_fp16"), val = tensor<fp16, [128, 512, 1, 1]>(BLOBFILE(path = tensor<string, []>("@model_path/weights/weight.bin"), offset = tensor<uint64, []>(2323904)))];
            tensor<fp16, [128]> sequential_resnet50_conv3_block4_1_bn_FusedBatchNormV3_nchw_bias_0_to_fp16 = const()[name = tensor<string, []>("sequential_resnet50_conv3_block4_1_bn_FusedBatchNormV3_nchw_bias_0_to_fp16"), val = tensor<fp16, [128]>(BLOBFILE(path = tensor<string, []>("@model_path/weights/weight.bin"), offset = tensor<uint64, []>(2455040)))];
            tensor<fp16, [?, 128, 28, 28]> sequential_resnet50_conv3_block4_1_bn_FusedBatchNormV3_nchw_cast = conv(bias = sequential_resnet50_conv3_block4_1_bn_FusedBatchNormV3_nchw_bias_0_to_fp16, dilations = sequential_resnet50_conv3_block4_1_conv_Conv2Dx_dilations_0, groups = sequential_resnet50_conv3_block4_1_conv_Conv2Dx_groups_0, pad = sequential_resnet50_conv3_block4_1_conv_Conv2Dx_pad_0, pad_type = sequential_resnet50_conv3_block4_1_conv_Conv2Dx_pad_type_0, strides = sequential_resnet50_conv3_block4_1_conv_Conv2Dx_strides_0, weight = sequential_resnet50_conv3_block4_1_bn_FusedBatchNormV3_nchw_weight_0_to_fp16, x = sequential_resnet50_conv3_block3_out_Relu_cast);
            tensor<fp16, [?, 128, 28, 28]> sequential_resnet50_conv3_block4_1_relu_Relu_cast = relu(x = sequential_resnet50_conv3_block4_1_bn_FusedBatchNormV3_nchw_cast);
            tensor<string, []> sequential_resnet50_conv3_block4_2_conv_Conv2Dx_pad_type_0 = const()[name = tensor<string, []>("sequential_resnet50_conv3_block4_2_conv_Conv2Dx_pad_type_0"), val = tensor<string, []>("same")];
            tensor<int32, [2]> sequential_resnet50_conv3_block4_2_conv_Conv2Dx_strides_0 = const()[name = tensor<string, []>("sequential_resnet50_conv3_block4_2_conv_Conv2Dx_strides_0"), val = tensor<int32, [2]>([1, 1])];
            tensor<int32, [2]> sequential_resnet50_conv3_block4_2_conv_Conv2Dx_dilations_0 = const()[name = tensor<string, []>("sequential_resnet50_conv3_block4_2_conv_Conv2Dx_dilations_0"), val = tensor<int32, [2]>([1, 1])];
            tensor<int32, []> sequential_resnet50_conv3_block4_2_conv_Conv2Dx_groups_0 = const()[name = tensor<string, []>("sequential_resnet50_conv3_block4_2_conv_Conv2Dx_groups_0"), val = tensor<int32, []>(1)];
            tensor<int32, [4]> sequential_resnet50_conv3_block4_2_conv_Conv2Dx_pad_0 = const()[name = tensor<string, []>("sequential_resnet50_conv3_block4_2_conv_Conv2Dx_pad_0"), val = tensor<int32, [4]>([0, 0, 0, 0])];
            tensor<fp16, [128, 128, 3, 3]> sequential_resnet50_conv3_block4_2_bn_FusedBatchNormV3_nchw_weight_0_to_fp16 = const()[name = tensor<string, []>("sequential_resnet50_conv3_block4_2_bn_FusedBatchNormV3_nchw_weight_0_to_fp16"), val = tensor<fp16, [128, 128, 3, 3]>(BLOBFILE(path = tensor<string, []>("@model_path/weights/weight.bin"), offset = tensor<uint64, []>(2455360)))];
            tensor<fp16, [128]> sequential_resnet50_conv3_block4_2_bn_FusedBatchNormV3_nchw_bias_0_to_fp16 = const()[name = tensor<string, []>("sequential_resnet50_conv3_block4_2_bn_FusedBatchNormV3_nchw_bias_0_to_fp16"), val = tensor<fp16, [128]>(BLOBFILE(path = tensor<string, []>("@model_path/weights/weight.bin"), offset = tensor<uint64, []>(2750336)))];
            tensor<fp16, [?, 128, 28, 28]> sequential_resnet50_conv3_block4_2_bn_FusedBatchNormV3_nchw_cast = conv(bias = sequential_resnet50_conv3_block4_2_bn_FusedBatchNormV3_nchw_bias_0_to_fp16, dilations = sequential_resnet50_conv3_block4_2_conv_Conv2Dx_dilations_0, groups = sequential_resnet50_conv3_block4_2_conv_Conv2Dx_groups_0, pad = sequential_resnet50_conv3_block4_2_conv_Conv2Dx_pad_0, pad_type = sequential_resnet50_conv3_block4_2_conv_Conv2Dx_pad_type_0, strides = sequential_resnet50_conv3_block4_2_conv_Conv2Dx_strides_0, weight = sequential_resnet50_conv3_block4_2_bn_FusedBatchNormV3_nchw_weight_0_to_fp16, x = sequential_resnet50_conv3_block4_1_relu_Relu_cast);
            tensor<fp16, [?, 128, 28, 28]> sequential_resnet50_conv3_block4_2_relu_Relu_cast = relu(x = sequential_resnet50_conv3_block4_2_bn_FusedBatchNormV3_nchw_cast);
            tensor<string, []> sequential_resnet50_conv3_block4_3_conv_Conv2Dx_pad_type_0 = const()[name = tensor<string, []>("sequential_resnet50_conv3_block4_3_conv_Conv2Dx_pad_type_0"), val = tensor<string, []>("valid")];
            tensor<int32, [2]> sequential_resnet50_conv3_block4_3_conv_Conv2Dx_strides_0 = const()[name = tensor<string, []>("sequential_resnet50_conv3_block4_3_conv_Conv2Dx_strides_0"), val = tensor<int32, [2]>([1, 1])];
            tensor<int32, [2]> sequential_resnet50_conv3_block4_3_conv_Conv2Dx_dilations_0 = const()[name = tensor<string, []>("sequential_resnet50_conv3_block4_3_conv_Conv2Dx_dilations_0"), val = tensor<int32, [2]>([1, 1])];
            tensor<int32, []> sequential_resnet50_conv3_block4_3_conv_Conv2Dx_groups_0 = const()[name = tensor<string, []>("sequential_resnet50_conv3_block4_3_conv_Conv2Dx_groups_0"), val = tensor<int32, []>(1)];
            tensor<int32, [4]> sequential_resnet50_conv3_block4_3_conv_Conv2Dx_pad_0 = const()[name = tensor<string, []>("sequential_resnet50_conv3_block4_3_conv_Conv2Dx_pad_0"), val = tensor<int32, [4]>([0, 0, 0, 0])];
            tensor<fp16, [512, 128, 1, 1]> sequential_resnet50_conv3_block4_3_bn_FusedBatchNormV3_nchw_weight_0_to_fp16 = const()[name = tensor<string, []>("sequential_resnet50_conv3_block4_3_bn_FusedBatchNormV3_nchw_weight_0_to_fp16"), val = tensor<fp16, [512, 128, 1, 1]>(BLOBFILE(path = tensor<string, []>("@model_path/weights/weight.bin"), offset = tensor<uint64, []>(2750656)))];
            tensor<fp16, [512]> sequential_resnet50_conv3_block4_3_bn_FusedBatchNormV3_nchw_bias_0_to_fp16 = const()[name = tensor<string, []>("sequential_resnet50_conv3_block4_3_bn_FusedBatchNormV3_nchw_bias_0_to_fp16"), val = tensor<fp16, [512]>(BLOBFILE(path = tensor<string, []>("@model_path/weights/weight.bin"), offset = tensor<uint64, []>(2881792)))];
            tensor<fp16, [?, 512, 28, 28]> sequential_resnet50_conv3_block4_3_bn_FusedBatchNormV3_nchw_cast = conv(bias = sequential_resnet50_conv3_block4_3_bn_FusedBatchNormV3_nchw_bias_0_to_fp16, dilations = sequential_resnet50_conv3_block4_3_conv_Conv2Dx_dilations_0, groups = sequential_resnet50_conv3_block4_3_conv_Conv2Dx_groups_0, pad = sequential_resnet50_conv3_block4_3_conv_Conv2Dx_pad_0, pad_type = sequential_resnet50_conv3_block4_3_conv_Conv2Dx_pad_type_0, strides = sequential_resnet50_conv3_block4_3_conv_Conv2Dx_strides_0, weight = sequential_resnet50_conv3_block4_3_bn_FusedBatchNormV3_nchw_weight_0_to_fp16, x = sequential_resnet50_conv3_block4_2_relu_Relu_cast);
            tensor<fp16, [?, 512, 28, 28]> sequential_resnet50_conv3_block4_add_add_cast = add(x = sequential_resnet50_conv3_block3_out_Relu_cast, y = sequential_resnet50_conv3_block4_3_bn_FusedBatchNormV3_nchw_cast);
            tensor<fp16, [?, 512, 28, 28]> sequential_resnet50_conv3_block4_out_Relu_cast = relu(x = sequential_resnet50_conv3_block4_add_add_cast);
            tensor<string, []> sequential_resnet50_conv4_block1_0_conv_Conv2Dx_pad_type_0 = const()[name = tensor<string, []>("sequential_resnet50_conv4_block1_0_conv_Conv2Dx_pad_type_0"), val = tensor<string, []>("valid")];
            tensor<int32, [2]> sequential_resnet50_conv4_block1_0_conv_Conv2Dx_strides_0 = const()[name = tensor<string, []>("sequential_resnet50_conv4_block1_0_conv_Conv2Dx_strides_0"), val = tensor<int32, [2]>([2, 2])];
            tensor<int32, [2]> sequential_resnet50_conv4_block1_0_conv_Conv2Dx_dilations_0 = const()[name = tensor<string, []>("sequential_resnet50_conv4_block1_0_conv_Conv2Dx_dilations_0"), val = tensor<int32, [2]>([1, 1])];
            tensor<int32, []> sequential_resnet50_conv4_block1_0_conv_Conv2Dx_groups_0 = const()[name = tensor<string, []>("sequential_resnet50_conv4_block1_0_conv_Conv2Dx_groups_0"), val = tensor<int32, []>(1)];
            tensor<int32, [4]> sequential_resnet50_conv4_block1_0_conv_Conv2Dx_pad_0 = const()[name = tensor<string, []>("sequential_resnet50_conv4_block1_0_conv_Conv2Dx_pad_0"), val = tensor<int32, [4]>([0, 0, 0, 0])];
            tensor<fp16, [1024, 512, 1, 1]> sequential_resnet50_conv4_block1_0_bn_FusedBatchNormV3_nchw_weight_0_to_fp16 = const()[name = tensor<string, []>("sequential_resnet50_conv4_block1_0_bn_FusedBatchNormV3_nchw_weight_0_to_fp16"), val = tensor<fp16, [1024, 512, 1, 1]>(BLOBFILE(path = tensor<string, []>("@model_path/weights/weight.bin"), offset = tensor<uint64, []>(2882880)))];
            tensor<fp16, [1024]> sequential_resnet50_conv4_block1_0_bn_FusedBatchNormV3_nchw_bias_0_to_fp16 = const()[name = tensor<string, []>("sequential_resnet50_conv4_block1_0_bn_FusedBatchNormV3_nchw_bias_0_to_fp16"), val = tensor<fp16, [1024]>(BLOBFILE(path = tensor<string, []>("@model_path/weights/weight.bin"), offset = tensor<uint64, []>(3931520)))];
            tensor<fp16, [?, 1024, 14, 14]> sequential_resnet50_conv4_block1_0_bn_FusedBatchNormV3_nchw_cast = conv(bias = sequential_resnet50_conv4_block1_0_bn_FusedBatchNormV3_nchw_bias_0_to_fp16, dilations = sequential_resnet50_conv4_block1_0_conv_Conv2Dx_dilations_0, groups = sequential_resnet50_conv4_block1_0_conv_Conv2Dx_groups_0, pad = sequential_resnet50_conv4_block1_0_conv_Conv2Dx_pad_0, pad_type = sequential_resnet50_conv4_block1_0_conv_Conv2Dx_pad_type_0, strides = sequential_resnet50_conv4_block1_0_conv_Conv2Dx_strides_0, weight = sequential_resnet50_conv4_block1_0_bn_FusedBatchNormV3_nchw_weight_0_to_fp16, x = sequential_resnet50_conv3_block4_out_Relu_cast);
            tensor<string, []> sequential_resnet50_conv4_block1_1_conv_Conv2Dx_pad_type_0 = const()[name = tensor<string, []>("sequential_resnet50_conv4_block1_1_conv_Conv2Dx_pad_type_0"), val = tensor<string, []>("valid")];
            tensor<int32, [2]> sequential_resnet50_conv4_block1_1_conv_Conv2Dx_strides_0 = const()[name = tensor<string, []>("sequential_resnet50_conv4_block1_1_conv_Conv2Dx_strides_0"), val = tensor<int32, [2]>([2, 2])];
            tensor<int32, [2]> sequential_resnet50_conv4_block1_1_conv_Conv2Dx_dilations_0 = const()[name = tensor<string, []>("sequential_resnet50_conv4_block1_1_conv_Conv2Dx_dilations_0"), val = tensor<int32, [2]>([1, 1])];
            tensor<int32, []> sequential_resnet50_conv4_block1_1_conv_Conv2Dx_groups_0 = const()[name = tensor<string, []>("sequential_resnet50_conv4_block1_1_conv_Conv2Dx_groups_0"), val = tensor<int32, []>(1)];
            tensor<int32, [4]> sequential_resnet50_conv4_block1_1_conv_Conv2Dx_pad_0 = const()[name = tensor<string, []>("sequential_resnet50_conv4_block1_1_conv_Conv2Dx_pad_0"), val = tensor<int32, [4]>([0, 0, 0, 0])];
            tensor<fp16, [256, 512, 1, 1]> sequential_resnet50_conv4_block1_1_bn_FusedBatchNormV3_nchw_weight_0_to_fp16 = const()[name = tensor<string, []>("sequential_resnet50_conv4_block1_1_bn_FusedBatchNormV3_nchw_weight_0_to_fp16"), val = tensor<fp16, [256, 512, 1, 1]>(BLOBFILE(path = tensor<string, []>("@model_path/weights/weight.bin"), offset = tensor<uint64, []>(3933632)))];
            tensor<fp16, [256]> sequential_resnet50_conv4_block1_1_bn_FusedBatchNormV3_nchw_bias_0_to_fp16 = const()[name = tensor<string, []>("sequential_resnet50_conv4_block1_1_bn_FusedBatchNormV3_nchw_bias_0_to_fp16"), val = tensor<fp16, [256]>(BLOBFILE(path = tensor<string, []>("@model_path/weights/weight.bin"), offset = tensor<uint64, []>(4195840)))];
            tensor<fp16, [?, 256, 14, 14]> sequential_resnet50_conv4_block1_1_bn_FusedBatchNormV3_nchw_cast = conv(bias = sequential_resnet50_conv4_block1_1_bn_FusedBatchNormV3_nchw_bias_0_to_fp16, dilations = sequential_resnet50_conv4_block1_1_conv_Conv2Dx_dilations_0, groups = sequential_resnet50_conv4_block1_1_conv_Conv2Dx_groups_0, pad = sequential_resnet50_conv4_block1_1_conv_Conv2Dx_pad_0, pad_type = sequential_resnet50_conv4_block1_1_conv_Conv2Dx_pad_type_0, strides = sequential_resnet50_conv4_block1_1_conv_Conv2Dx_strides_0, weight = sequential_resnet50_conv4_block1_1_bn_FusedBatchNormV3_nchw_weight_0_to_fp16, x = sequential_resnet50_conv3_block4_out_Relu_cast);
            tensor<fp16, [?, 256, 14, 14]> sequential_resnet50_conv4_block1_1_relu_Relu_cast = relu(x = sequential_resnet50_conv4_block1_1_bn_FusedBatchNormV3_nchw_cast);
            tensor<string, []> sequential_resnet50_conv4_block1_2_conv_Conv2Dx_pad_type_0 = const()[name = tensor<string, []>("sequential_resnet50_conv4_block1_2_conv_Conv2Dx_pad_type_0"), val = tensor<string, []>("same")];
            tensor<int32, [2]> sequential_resnet50_conv4_block1_2_conv_Conv2Dx_strides_0 = const()[name = tensor<string, []>("sequential_resnet50_conv4_block1_2_conv_Conv2Dx_strides_0"), val = tensor<int32, [2]>([1, 1])];
            tensor<int32, [2]> sequential_resnet50_conv4_block1_2_conv_Conv2Dx_dilations_0 = const()[name = tensor<string, []>("sequential_resnet50_conv4_block1_2_conv_Conv2Dx_dilations_0"), val = tensor<int32, [2]>([1, 1])];
            tensor<int32, []> sequential_resnet50_conv4_block1_2_conv_Conv2Dx_groups_0 = const()[name = tensor<string, []>("sequential_resnet50_conv4_block1_2_conv_Conv2Dx_groups_0"), val = tensor<int32, []>(1)];
            tensor<int32, [4]> sequential_resnet50_conv4_block1_2_conv_Conv2Dx_pad_0 = const()[name = tensor<string, []>("sequential_resnet50_conv4_block1_2_conv_Conv2Dx_pad_0"), val = tensor<int32, [4]>([0, 0, 0, 0])];
            tensor<fp16, [256, 256, 3, 3]> sequential_resnet50_conv4_block1_2_bn_FusedBatchNormV3_nchw_weight_0_to_fp16 = const()[name = tensor<string, []>("sequential_resnet50_conv4_block1_2_bn_FusedBatchNormV3_nchw_weight_0_to_fp16"), val = tensor<fp16, [256, 256, 3, 3]>(BLOBFILE(path = tensor<string, []>("@model_path/weights/weight.bin"), offset = tensor<uint64, []>(4196416)))];
            tensor<fp16, [256]> sequential_resnet50_conv4_block1_2_bn_FusedBatchNormV3_nchw_bias_0_to_fp16 = const()[name = tensor<string, []>("sequential_resnet50_conv4_block1_2_bn_FusedBatchNormV3_nchw_bias_0_to_fp16"), val = tensor<fp16, [256]>(BLOBFILE(path = tensor<string, []>("@model_path/weights/weight.bin"), offset = tensor<uint64, []>(5376128)))];
            tensor<fp16, [?, 256, 14, 14]> sequential_resnet50_conv4_block1_2_bn_FusedBatchNormV3_nchw_cast = conv(bias = sequential_resnet50_conv4_block1_2_bn_FusedBatchNormV3_nchw_bias_0_to_fp16, dilations = sequential_resnet50_conv4_block1_2_conv_Conv2Dx_dilations_0, groups = sequential_resnet50_conv4_block1_2_conv_Conv2Dx_groups_0, pad = sequential_resnet50_conv4_block1_2_conv_Conv2Dx_pad_0, pad_type = sequential_resnet50_conv4_block1_2_conv_Conv2Dx_pad_type_0, strides = sequential_resnet50_conv4_block1_2_conv_Conv2Dx_strides_0, weight = sequential_resnet50_conv4_block1_2_bn_FusedBatchNormV3_nchw_weight_0_to_fp16, x = sequential_resnet50_conv4_block1_1_relu_Relu_cast);
            tensor<fp16, [?, 256, 14, 14]> sequential_resnet50_conv4_block1_2_relu_Relu_cast = relu(x = sequential_resnet50_conv4_block1_2_bn_FusedBatchNormV3_nchw_cast);
            tensor<string, []> sequential_resnet50_conv4_block1_3_conv_Conv2Dx_pad_type_0 = const()[name = tensor<string, []>("sequential_resnet50_conv4_block1_3_conv_Conv2Dx_pad_type_0"), val = tensor<string, []>("valid")];
            tensor<int32, [2]> sequential_resnet50_conv4_block1_3_conv_Conv2Dx_strides_0 = const()[name = tensor<string, []>("sequential_resnet50_conv4_block1_3_conv_Conv2Dx_strides_0"), val = tensor<int32, [2]>([1, 1])];
            tensor<int32, [2]> sequential_resnet50_conv4_block1_3_conv_Conv2Dx_dilations_0 = const()[name = tensor<string, []>("sequential_resnet50_conv4_block1_3_conv_Conv2Dx_dilations_0"), val = tensor<int32, [2]>([1, 1])];
            tensor<int32, []> sequential_resnet50_conv4_block1_3_conv_Conv2Dx_groups_0 = const()[name = tensor<string, []>("sequential_resnet50_conv4_block1_3_conv_Conv2Dx_groups_0"), val = tensor<int32, []>(1)];
            tensor<int32, [4]> sequential_resnet50_conv4_block1_3_conv_Conv2Dx_pad_0 = const()[name = tensor<string, []>("sequential_resnet50_conv4_block1_3_conv_Conv2Dx_pad_0"), val = tensor<int32, [4]>([0, 0, 0, 0])];
            tensor<fp16, [1024, 256, 1, 1]> sequential_resnet50_conv4_block1_3_bn_FusedBatchNormV3_nchw_weight_0_to_fp16 = const()[name = tensor<string, []>("sequential_resnet50_conv4_block1_3_bn_FusedBatchNormV3_nchw_weight_0_to_fp16"), val = tensor<fp16, [1024, 256, 1, 1]>(BLOBFILE(path = tensor<string, []>("@model_path/weights/weight.bin"), offset = tensor<uint64, []>(5376704)))];
            tensor<fp16, [1024]> sequential_resnet50_conv4_block1_3_bn_FusedBatchNormV3_nchw_bias_0_to_fp16 = const()[name = tensor<string, []>("sequential_resnet50_conv4_block1_3_bn_FusedBatchNormV3_nchw_bias_0_to_fp16"), val = tensor<fp16, [1024]>(BLOBFILE(path = tensor<string, []>("@model_path/weights/weight.bin"), offset = tensor<uint64, []>(5901056)))];
            tensor<fp16, [?, 1024, 14, 14]> sequential_resnet50_conv4_block1_3_bn_FusedBatchNormV3_nchw_cast = conv(bias = sequential_resnet50_conv4_block1_3_bn_FusedBatchNormV3_nchw_bias_0_to_fp16, dilations = sequential_resnet50_conv4_block1_3_conv_Conv2Dx_dilations_0, groups = sequential_resnet50_conv4_block1_3_conv_Conv2Dx_groups_0, pad = sequential_resnet50_conv4_block1_3_conv_Conv2Dx_pad_0, pad_type = sequential_resnet50_conv4_block1_3_conv_Conv2Dx_pad_type_0, strides = sequential_resnet50_conv4_block1_3_conv_Conv2Dx_strides_0, weight = sequential_resnet50_conv4_block1_3_bn_FusedBatchNormV3_nchw_weight_0_to_fp16, x = sequential_resnet50_conv4_block1_2_relu_Relu_cast);
            tensor<fp16, [?, 1024, 14, 14]> sequential_resnet50_conv4_block1_add_add_cast = add(x = sequential_resnet50_conv4_block1_0_bn_FusedBatchNormV3_nchw_cast, y = sequential_resnet50_conv4_block1_3_bn_FusedBatchNormV3_nchw_cast);
            tensor<fp16, [?, 1024, 14, 14]> sequential_resnet50_conv4_block1_out_Relu_cast = relu(x = sequential_resnet50_conv4_block1_add_add_cast);
            tensor<string, []> sequential_resnet50_conv4_block2_1_conv_Conv2Dx_pad_type_0 = const()[name = tensor<string, []>("sequential_resnet50_conv4_block2_1_conv_Conv2Dx_pad_type_0"), val = tensor<string, []>("valid")];
            tensor<int32, [2]> sequential_resnet50_conv4_block2_1_conv_Conv2Dx_strides_0 = const()[name = tensor<string, []>("sequential_resnet50_conv4_block2_1_conv_Conv2Dx_strides_0"), val = tensor<int32, [2]>([1, 1])];
            tensor<int32, [2]> sequential_resnet50_conv4_block2_1_conv_Conv2Dx_dilations_0 = const()[name = tensor<string, []>("sequential_resnet50_conv4_block2_1_conv_Conv2Dx_dilations_0"), val = tensor<int32, [2]>([1, 1])];
            tensor<int32, []> sequential_resnet50_conv4_block2_1_conv_Conv2Dx_groups_0 = const()[name = tensor<string, []>("sequential_resnet50_conv4_block2_1_conv_Conv2Dx_groups_0"), val = tensor<int32, []>(1)];
            tensor<int32, [4]> sequential_resnet50_conv4_block2_1_conv_Conv2Dx_pad_0 = const()[name = tensor<string, []>("sequential_resnet50_conv4_block2_1_conv_Conv2Dx_pad_0"), val = tensor<int32, [4]>([0, 0, 0, 0])];
            tensor<fp16, [256, 1024, 1, 1]> sequential_resnet50_conv4_block2_1_bn_FusedBatchNormV3_nchw_weight_0_to_fp16 = const()[name = tensor<string, []>("sequential_resnet50_conv4_block2_1_bn_FusedBatchNormV3_nchw_weight_0_to_fp16"), val = tensor<fp16, [256, 1024, 1, 1]>(BLOBFILE(path = tensor<string, []>("@model_path/weights/weight.bin"), offset = tensor<uint64, []>(5903168)))];
            tensor<fp16, [256]> sequential_resnet50_conv4_block2_1_bn_FusedBatchNormV3_nchw_bias_0_to_fp16 = const()[name = tensor<string, []>("sequential_resnet50_conv4_block2_1_bn_FusedBatchNormV3_nchw_bias_0_to_fp16"), val = tensor<fp16, [256]>(BLOBFILE(path = tensor<string, []>("@model_path/weights/weight.bin"), offset = tensor<uint64, []>(6427520)))];
            tensor<fp16, [?, 256, 14, 14]> sequential_resnet50_conv4_block2_1_bn_FusedBatchNormV3_nchw_cast = conv(bias = sequential_resnet50_conv4_block2_1_bn_FusedBatchNormV3_nchw_bias_0_to_fp16, dilations = sequential_resnet50_conv4_block2_1_conv_Conv2Dx_dilations_0, groups = sequential_resnet50_conv4_block2_1_conv_Conv2Dx_groups_0, pad = sequential_resnet50_conv4_block2_1_conv_Conv2Dx_pad_0, pad_type = sequential_resnet50_conv4_block2_1_conv_Conv2Dx_pad_type_0, strides = sequential_resnet50_conv4_block2_1_conv_Conv2Dx_strides_0, weight = sequential_resnet50_conv4_block2_1_bn_FusedBatchNormV3_nchw_weight_0_to_fp16, x = sequential_resnet50_conv4_block1_out_Relu_cast);
            tensor<fp16, [?, 256, 14, 14]> sequential_resnet50_conv4_block2_1_relu_Relu_cast = relu(x = sequential_resnet50_conv4_block2_1_bn_FusedBatchNormV3_nchw_cast);
            tensor<string, []> sequential_resnet50_conv4_block2_2_conv_Conv2Dx_pad_type_0 = const()[name = tensor<string, []>("sequential_resnet50_conv4_block2_2_conv_Conv2Dx_pad_type_0"), val = tensor<string, []>("same")];
            tensor<int32, [2]> sequential_resnet50_conv4_block2_2_conv_Conv2Dx_strides_0 = const()[name = tensor<string, []>("sequential_resnet50_conv4_block2_2_conv_Conv2Dx_strides_0"), val = tensor<int32, [2]>([1, 1])];
            tensor<int32, [2]> sequential_resnet50_conv4_block2_2_conv_Conv2Dx_dilations_0 = const()[name = tensor<string, []>("sequential_resnet50_conv4_block2_2_conv_Conv2Dx_dilations_0"), val = tensor<int32, [2]>([1, 1])];
            tensor<int32, []> sequential_resnet50_conv4_block2_2_conv_Conv2Dx_groups_0 = const()[name = tensor<string, []>("sequential_resnet50_conv4_block2_2_conv_Conv2Dx_groups_0"), val = tensor<int32, []>(1)];
            tensor<int32, [4]> sequential_resnet50_conv4_block2_2_conv_Conv2Dx_pad_0 = const()[name = tensor<string, []>("sequential_resnet50_conv4_block2_2_conv_Conv2Dx_pad_0"), val = tensor<int32, [4]>([0, 0, 0, 0])];
            tensor<fp16, [256, 256, 3, 3]> sequential_resnet50_conv4_block2_2_bn_FusedBatchNormV3_nchw_weight_0_to_fp16 = const()[name = tensor<string, []>("sequential_resnet50_conv4_block2_2_bn_FusedBatchNormV3_nchw_weight_0_to_fp16"), val = tensor<fp16, [256, 256, 3, 3]>(BLOBFILE(path = tensor<string, []>("@model_path/weights/weight.bin"), offset = tensor<uint64, []>(6428096)))];
            tensor<fp16, [256]> sequential_resnet50_conv4_block2_2_bn_FusedBatchNormV3_nchw_bias_0_to_fp16 = const()[name = tensor<string, []>("sequential_resnet50_conv4_block2_2_bn_FusedBatchNormV3_nchw_bias_0_to_fp16"), val = tensor<fp16, [256]>(BLOBFILE(path = tensor<string, []>("@model_path/weights/weight.bin"), offset = tensor<uint64, []>(7607808)))];
            tensor<fp16, [?, 256, 14, 14]> sequential_resnet50_conv4_block2_2_bn_FusedBatchNormV3_nchw_cast = conv(bias = sequential_resnet50_conv4_block2_2_bn_FusedBatchNormV3_nchw_bias_0_to_fp16, dilations = sequential_resnet50_conv4_block2_2_conv_Conv2Dx_dilations_0, groups = sequential_resnet50_conv4_block2_2_conv_Conv2Dx_groups_0, pad = sequential_resnet50_conv4_block2_2_conv_Conv2Dx_pad_0, pad_type = sequential_resnet50_conv4_block2_2_conv_Conv2Dx_pad_type_0, strides = sequential_resnet50_conv4_block2_2_conv_Conv2Dx_strides_0, weight = sequential_resnet50_conv4_block2_2_bn_FusedBatchNormV3_nchw_weight_0_to_fp16, x = sequential_resnet50_conv4_block2_1_relu_Relu_cast);
            tensor<fp16, [?, 256, 14, 14]> sequential_resnet50_conv4_block2_2_relu_Relu_cast = relu(x = sequential_resnet50_conv4_block2_2_bn_FusedBatchNormV3_nchw_cast);
            tensor<string, []> sequential_resnet50_conv4_block2_3_conv_Conv2Dx_pad_type_0 = const()[name = tensor<string, []>("sequential_resnet50_conv4_block2_3_conv_Conv2Dx_pad_type_0"), val = tensor<string, []>("valid")];
            tensor<int32, [2]> sequential_resnet50_conv4_block2_3_conv_Conv2Dx_strides_0 = const()[name = tensor<string, []>("sequential_resnet50_conv4_block2_3_conv_Conv2Dx_strides_0"), val = tensor<int32, [2]>([1, 1])];
            tensor<int32, [2]> sequential_resnet50_conv4_block2_3_conv_Conv2Dx_dilations_0 = const()[name = tensor<string, []>("sequential_resnet50_conv4_block2_3_conv_Conv2Dx_dilations_0"), val = tensor<int32, [2]>([1, 1])];
            tensor<int32, []> sequential_resnet50_conv4_block2_3_conv_Conv2Dx_groups_0 = const()[name = tensor<string, []>("sequential_resnet50_conv4_block2_3_conv_Conv2Dx_groups_0"), val = tensor<int32, []>(1)];
            tensor<int32, [4]> sequential_resnet50_conv4_block2_3_conv_Conv2Dx_pad_0 = const()[name = tensor<string, []>("sequential_resnet50_conv4_block2_3_conv_Conv2Dx_pad_0"), val = tensor<int32, [4]>([0, 0, 0, 0])];
            tensor<fp16, [1024, 256, 1, 1]> sequential_resnet50_conv4_block2_3_bn_FusedBatchNormV3_nchw_weight_0_to_fp16 = const()[name = tensor<string, []>("sequential_resnet50_conv4_block2_3_bn_FusedBatchNormV3_nchw_weight_0_to_fp16"), val = tensor<fp16, [1024, 256, 1, 1]>(BLOBFILE(path = tensor<string, []>("@model_path/weights/weight.bin"), offset = tensor<uint64, []>(7608384)))];
            tensor<fp16, [1024]> sequential_resnet50_conv4_block2_3_bn_FusedBatchNormV3_nchw_bias_0_to_fp16 = const()[name = tensor<string, []>("sequential_resnet50_conv4_block2_3_bn_FusedBatchNormV3_nchw_bias_0_to_fp16"), val = tensor<fp16, [1024]>(BLOBFILE(path = tensor<string, []>("@model_path/weights/weight.bin"), offset = tensor<uint64, []>(8132736)))];
            tensor<fp16, [?, 1024, 14, 14]> sequential_resnet50_conv4_block2_3_bn_FusedBatchNormV3_nchw_cast = conv(bias = sequential_resnet50_conv4_block2_3_bn_FusedBatchNormV3_nchw_bias_0_to_fp16, dilations = sequential_resnet50_conv4_block2_3_conv_Conv2Dx_dilations_0, groups = sequential_resnet50_conv4_block2_3_conv_Conv2Dx_groups_0, pad = sequential_resnet50_conv4_block2_3_conv_Conv2Dx_pad_0, pad_type = sequential_resnet50_conv4_block2_3_conv_Conv2Dx_pad_type_0, strides = sequential_resnet50_conv4_block2_3_conv_Conv2Dx_strides_0, weight = sequential_resnet50_conv4_block2_3_bn_FusedBatchNormV3_nchw_weight_0_to_fp16, x = sequential_resnet50_conv4_block2_2_relu_Relu_cast);
            tensor<fp16, [?, 1024, 14, 14]> sequential_resnet50_conv4_block2_add_add_cast = add(x = sequential_resnet50_conv4_block1_out_Relu_cast, y = sequential_resnet50_conv4_block2_3_bn_FusedBatchNormV3_nchw_cast);
            tensor<fp16, [?, 1024, 14, 14]> sequential_resnet50_conv4_block2_out_Relu_cast = relu(x = sequential_resnet50_conv4_block2_add_add_cast);
            tensor<string, []> sequential_resnet50_conv4_block3_1_conv_Conv2Dx_pad_type_0 = const()[name = tensor<string, []>("sequential_resnet50_conv4_block3_1_conv_Conv2Dx_pad_type_0"), val = tensor<string, []>("valid")];
            tensor<int32, [2]> sequential_resnet50_conv4_block3_1_conv_Conv2Dx_strides_0 = const()[name = tensor<string, []>("sequential_resnet50_conv4_block3_1_conv_Conv2Dx_strides_0"), val = tensor<int32, [2]>([1, 1])];
            tensor<int32, [2]> sequential_resnet50_conv4_block3_1_conv_Conv2Dx_dilations_0 = const()[name = tensor<string, []>("sequential_resnet50_conv4_block3_1_conv_Conv2Dx_dilations_0"), val = tensor<int32, [2]>([1, 1])];
            tensor<int32, []> sequential_resnet50_conv4_block3_1_conv_Conv2Dx_groups_0 = const()[name = tensor<string, []>("sequential_resnet50_conv4_block3_1_conv_Conv2Dx_groups_0"), val = tensor<int32, []>(1)];
            tensor<int32, [4]> sequential_resnet50_conv4_block3_1_conv_Conv2Dx_pad_0 = const()[name = tensor<string, []>("sequential_resnet50_conv4_block3_1_conv_Conv2Dx_pad_0"), val = tensor<int32, [4]>([0, 0, 0, 0])];
            tensor<fp16, [256, 1024, 1, 1]> sequential_resnet50_conv4_block3_1_bn_FusedBatchNormV3_nchw_weight_0_to_fp16 = const()[name = tensor<string, []>("sequential_resnet50_conv4_block3_1_bn_FusedBatchNormV3_nchw_weight_0_to_fp16"), val = tensor<fp16, [256, 1024, 1, 1]>(BLOBFILE(path = tensor<string, []>("@model_path/weights/weight.bin"), offset = tensor<uint64, []>(8134848)))];
            tensor<fp16, [256]> sequential_resnet50_conv4_block3_1_bn_FusedBatchNormV3_nchw_bias_0_to_fp16 = const()[name = tensor<string, []>("sequential_resnet50_conv4_block3_1_bn_FusedBatchNormV3_nchw_bias_0_to_fp16"), val = tensor<fp16, [256]>(BLOBFILE(path = tensor<string, []>("@model_path/weights/weight.bin"), offset = tensor<uint64, []>(8659200)))];
            tensor<fp16, [?, 256, 14, 14]> sequential_resnet50_conv4_block3_1_bn_FusedBatchNormV3_nchw_cast = conv(bias = sequential_resnet50_conv4_block3_1_bn_FusedBatchNormV3_nchw_bias_0_to_fp16, dilations = sequential_resnet50_conv4_block3_1_conv_Conv2Dx_dilations_0, groups = sequential_resnet50_conv4_block3_1_conv_Conv2Dx_groups_0, pad = sequential_resnet50_conv4_block3_1_conv_Conv2Dx_pad_0, pad_type = sequential_resnet50_conv4_block3_1_conv_Conv2Dx_pad_type_0, strides = sequential_resnet50_conv4_block3_1_conv_Conv2Dx_strides_0, weight = sequential_resnet50_conv4_block3_1_bn_FusedBatchNormV3_nchw_weight_0_to_fp16, x = sequential_resnet50_conv4_block2_out_Relu_cast);
            tensor<fp16, [?, 256, 14, 14]> sequential_resnet50_conv4_block3_1_relu_Relu_cast = relu(x = sequential_resnet50_conv4_block3_1_bn_FusedBatchNormV3_nchw_cast);
            tensor<string, []> sequential_resnet50_conv4_block3_2_conv_Conv2Dx_pad_type_0 = const()[name = tensor<string, []>("sequential_resnet50_conv4_block3_2_conv_Conv2Dx_pad_type_0"), val = tensor<string, []>("same")];
            tensor<int32, [2]> sequential_resnet50_conv4_block3_2_conv_Conv2Dx_strides_0 = const()[name = tensor<string, []>("sequential_resnet50_conv4_block3_2_conv_Conv2Dx_strides_0"), val = tensor<int32, [2]>([1, 1])];
            tensor<int32, [2]> sequential_resnet50_conv4_block3_2_conv_Conv2Dx_dilations_0 = const()[name = tensor<string, []>("sequential_resnet50_conv4_block3_2_conv_Conv2Dx_dilations_0"), val = tensor<int32, [2]>([1, 1])];
            tensor<int32, []> sequential_resnet50_conv4_block3_2_conv_Conv2Dx_groups_0 = const()[name = tensor<string, []>("sequential_resnet50_conv4_block3_2_conv_Conv2Dx_groups_0"), val = tensor<int32, []>(1)];
            tensor<int32, [4]> sequential_resnet50_conv4_block3_2_conv_Conv2Dx_pad_0 = const()[name = tensor<string, []>("sequential_resnet50_conv4_block3_2_conv_Conv2Dx_pad_0"), val = tensor<int32, [4]>([0, 0, 0, 0])];
            tensor<fp16, [256, 256, 3, 3]> sequential_resnet50_conv4_block3_2_bn_FusedBatchNormV3_nchw_weight_0_to_fp16 = const()[name = tensor<string, []>("sequential_resnet50_conv4_block3_2_bn_FusedBatchNormV3_nchw_weight_0_to_fp16"), val = tensor<fp16, [256, 256, 3, 3]>(BLOBFILE(path = tensor<string, []>("@model_path/weights/weight.bin"), offset = tensor<uint64, []>(8659776)))];
            tensor<fp16, [256]> sequential_resnet50_conv4_block3_2_bn_FusedBatchNormV3_nchw_bias_0_to_fp16 = const()[name = tensor<string, []>("sequential_resnet50_conv4_block3_2_bn_FusedBatchNormV3_nchw_bias_0_to_fp16"), val = tensor<fp16, [256]>(BLOBFILE(path = tensor<string, []>("@model_path/weights/weight.bin"), offset = tensor<uint64, []>(9839488)))];
            tensor<fp16, [?, 256, 14, 14]> sequential_resnet50_conv4_block3_2_bn_FusedBatchNormV3_nchw_cast = conv(bias = sequential_resnet50_conv4_block3_2_bn_FusedBatchNormV3_nchw_bias_0_to_fp16, dilations = sequential_resnet50_conv4_block3_2_conv_Conv2Dx_dilations_0, groups = sequential_resnet50_conv4_block3_2_conv_Conv2Dx_groups_0, pad = sequential_resnet50_conv4_block3_2_conv_Conv2Dx_pad_0, pad_type = sequential_resnet50_conv4_block3_2_conv_Conv2Dx_pad_type_0, strides = sequential_resnet50_conv4_block3_2_conv_Conv2Dx_strides_0, weight = sequential_resnet50_conv4_block3_2_bn_FusedBatchNormV3_nchw_weight_0_to_fp16, x = sequential_resnet50_conv4_block3_1_relu_Relu_cast);
            tensor<fp16, [?, 256, 14, 14]> sequential_resnet50_conv4_block3_2_relu_Relu_cast = relu(x = sequential_resnet50_conv4_block3_2_bn_FusedBatchNormV3_nchw_cast);
            tensor<string, []> sequential_resnet50_conv4_block3_3_conv_Conv2Dx_pad_type_0 = const()[name = tensor<string, []>("sequential_resnet50_conv4_block3_3_conv_Conv2Dx_pad_type_0"), val = tensor<string, []>("valid")];
            tensor<int32, [2]> sequential_resnet50_conv4_block3_3_conv_Conv2Dx_strides_0 = const()[name = tensor<string, []>("sequential_resnet50_conv4_block3_3_conv_Conv2Dx_strides_0"), val = tensor<int32, [2]>([1, 1])];
            tensor<int32, [2]> sequential_resnet50_conv4_block3_3_conv_Conv2Dx_dilations_0 = const()[name = tensor<string, []>("sequential_resnet50_conv4_block3_3_conv_Conv2Dx_dilations_0"), val = tensor<int32, [2]>([1, 1])];
            tensor<int32, []> sequential_resnet50_conv4_block3_3_conv_Conv2Dx_groups_0 = const()[name = tensor<string, []>("sequential_resnet50_conv4_block3_3_conv_Conv2Dx_groups_0"), val = tensor<int32, []>(1)];
            tensor<int32, [4]> sequential_resnet50_conv4_block3_3_conv_Conv2Dx_pad_0 = const()[name = tensor<string, []>("sequential_resnet50_conv4_block3_3_conv_Conv2Dx_pad_0"), val = tensor<int32, [4]>([0, 0, 0, 0])];
            tensor<fp16, [1024, 256, 1, 1]> sequential_resnet50_conv4_block3_3_bn_FusedBatchNormV3_nchw_weight_0_to_fp16 = const()[name = tensor<string, []>("sequential_resnet50_conv4_block3_3_bn_FusedBatchNormV3_nchw_weight_0_to_fp16"), val = tensor<fp16, [1024, 256, 1, 1]>(BLOBFILE(path = tensor<string, []>("@model_path/weights/weight.bin"), offset = tensor<uint64, []>(9840064)))];
            tensor<fp16, [1024]> sequential_resnet50_conv4_block3_3_bn_FusedBatchNormV3_nchw_bias_0_to_fp16 = const()[name = tensor<string, []>("sequential_resnet50_conv4_block3_3_bn_FusedBatchNormV3_nchw_bias_0_to_fp16"), val = tensor<fp16, [1024]>(BLOBFILE(path = tensor<string, []>("@model_path/weights/weight.bin"), offset = tensor<uint64, []>(10364416)))];
            tensor<fp16, [?, 1024, 14, 14]> sequential_resnet50_conv4_block3_3_bn_FusedBatchNormV3_nchw_cast = conv(bias = sequential_resnet50_conv4_block3_3_bn_FusedBatchNormV3_nchw_bias_0_to_fp16, dilations = sequential_resnet50_conv4_block3_3_conv_Conv2Dx_dilations_0, groups = sequential_resnet50_conv4_block3_3_conv_Conv2Dx_groups_0, pad = sequential_resnet50_conv4_block3_3_conv_Conv2Dx_pad_0, pad_type = sequential_resnet50_conv4_block3_3_conv_Conv2Dx_pad_type_0, strides = sequential_resnet50_conv4_block3_3_conv_Conv2Dx_strides_0, weight = sequential_resnet50_conv4_block3_3_bn_FusedBatchNormV3_nchw_weight_0_to_fp16, x = sequential_resnet50_conv4_block3_2_relu_Relu_cast);
            tensor<fp16, [?, 1024, 14, 14]> sequential_resnet50_conv4_block3_add_add_cast = add(x = sequential_resnet50_conv4_block2_out_Relu_cast, y = sequential_resnet50_conv4_block3_3_bn_FusedBatchNormV3_nchw_cast);
            tensor<fp16, [?, 1024, 14, 14]> sequential_resnet50_conv4_block3_out_Relu_cast = relu(x = sequential_resnet50_conv4_block3_add_add_cast);
            tensor<string, []> sequential_resnet50_conv4_block4_1_conv_Conv2Dx_pad_type_0 = const()[name = tensor<string, []>("sequential_resnet50_conv4_block4_1_conv_Conv2Dx_pad_type_0"), val = tensor<string, []>("valid")];
            tensor<int32, [2]> sequential_resnet50_conv4_block4_1_conv_Conv2Dx_strides_0 = const()[name = tensor<string, []>("sequential_resnet50_conv4_block4_1_conv_Conv2Dx_strides_0"), val = tensor<int32, [2]>([1, 1])];
            tensor<int32, [2]> sequential_resnet50_conv4_block4_1_conv_Conv2Dx_dilations_0 = const()[name = tensor<string, []>("sequential_resnet50_conv4_block4_1_conv_Conv2Dx_dilations_0"), val = tensor<int32, [2]>([1, 1])];
            tensor<int32, []> sequential_resnet50_conv4_block4_1_conv_Conv2Dx_groups_0 = const()[name = tensor<string, []>("sequential_resnet50_conv4_block4_1_conv_Conv2Dx_groups_0"), val = tensor<int32, []>(1)];
            tensor<int32, [4]> sequential_resnet50_conv4_block4_1_conv_Conv2Dx_pad_0 = const()[name = tensor<string, []>("sequential_resnet50_conv4_block4_1_conv_Conv2Dx_pad_0"), val = tensor<int32, [4]>([0, 0, 0, 0])];
            tensor<fp16, [256, 1024, 1, 1]> sequential_resnet50_conv4_block4_1_bn_FusedBatchNormV3_nchw_weight_0_to_fp16 = const()[name = tensor<string, []>("sequential_resnet50_conv4_block4_1_bn_FusedBatchNormV3_nchw_weight_0_to_fp16"), val = tensor<fp16, [256, 1024, 1, 1]>(BLOBFILE(path = tensor<string, []>("@model_path/weights/weight.bin"), offset = tensor<uint64, []>(10366528)))];
            tensor<fp16, [256]> sequential_resnet50_conv4_block4_1_bn_FusedBatchNormV3_nchw_bias_0_to_fp16 = const()[name = tensor<string, []>("sequential_resnet50_conv4_block4_1_bn_FusedBatchNormV3_nchw_bias_0_to_fp16"), val = tensor<fp16, [256]>(BLOBFILE(path = tensor<string, []>("@model_path/weights/weight.bin"), offset = tensor<uint64, []>(10890880)))];
            tensor<fp16, [?, 256, 14, 14]> sequential_resnet50_conv4_block4_1_bn_FusedBatchNormV3_nchw_cast = conv(bias = sequential_resnet50_conv4_block4_1_bn_FusedBatchNormV3_nchw_bias_0_to_fp16, dilations = sequential_resnet50_conv4_block4_1_conv_Conv2Dx_dilations_0, groups = sequential_resnet50_conv4_block4_1_conv_Conv2Dx_groups_0, pad = sequential_resnet50_conv4_block4_1_conv_Conv2Dx_pad_0, pad_type = sequential_resnet50_conv4_block4_1_conv_Conv2Dx_pad_type_0, strides = sequential_resnet50_conv4_block4_1_conv_Conv2Dx_strides_0, weight = sequential_resnet50_conv4_block4_1_bn_FusedBatchNormV3_nchw_weight_0_to_fp16, x = sequential_resnet50_conv4_block3_out_Relu_cast);
            tensor<fp16, [?, 256, 14, 14]> sequential_resnet50_conv4_block4_1_relu_Relu_cast = relu(x = sequential_resnet50_conv4_block4_1_bn_FusedBatchNormV3_nchw_cast);
            tensor<string, []> sequential_resnet50_conv4_block4_2_conv_Conv2Dx_pad_type_0 = const()[name = tensor<string, []>("sequential_resnet50_conv4_block4_2_conv_Conv2Dx_pad_type_0"), val = tensor<string, []>("same")];
            tensor<int32, [2]> sequential_resnet50_conv4_block4_2_conv_Conv2Dx_strides_0 = const()[name = tensor<string, []>("sequential_resnet50_conv4_block4_2_conv_Conv2Dx_strides_0"), val = tensor<int32, [2]>([1, 1])];
            tensor<int32, [2]> sequential_resnet50_conv4_block4_2_conv_Conv2Dx_dilations_0 = const()[name = tensor<string, []>("sequential_resnet50_conv4_block4_2_conv_Conv2Dx_dilations_0"), val = tensor<int32, [2]>([1, 1])];
            tensor<int32, []> sequential_resnet50_conv4_block4_2_conv_Conv2Dx_groups_0 = const()[name = tensor<string, []>("sequential_resnet50_conv4_block4_2_conv_Conv2Dx_groups_0"), val = tensor<int32, []>(1)];
            tensor<int32, [4]> sequential_resnet50_conv4_block4_2_conv_Conv2Dx_pad_0 = const()[name = tensor<string, []>("sequential_resnet50_conv4_block4_2_conv_Conv2Dx_pad_0"), val = tensor<int32, [4]>([0, 0, 0, 0])];
            tensor<fp16, [256, 256, 3, 3]> sequential_resnet50_conv4_block4_2_bn_FusedBatchNormV3_nchw_weight_0_to_fp16 = const()[name = tensor<string, []>("sequential_resnet50_conv4_block4_2_bn_FusedBatchNormV3_nchw_weight_0_to_fp16"), val = tensor<fp16, [256, 256, 3, 3]>(BLOBFILE(path = tensor<string, []>("@model_path/weights/weight.bin"), offset = tensor<uint64, []>(10891456)))];
            tensor<fp16, [256]> sequential_resnet50_conv4_block4_2_bn_FusedBatchNormV3_nchw_bias_0_to_fp16 = const()[name = tensor<string, []>("sequential_resnet50_conv4_block4_2_bn_FusedBatchNormV3_nchw_bias_0_to_fp16"), val = tensor<fp16, [256]>(BLOBFILE(path = tensor<string, []>("@model_path/weights/weight.bin"), offset = tensor<uint64, []>(12071168)))];
            tensor<fp16, [?, 256, 14, 14]> sequential_resnet50_conv4_block4_2_bn_FusedBatchNormV3_nchw_cast = conv(bias = sequential_resnet50_conv4_block4_2_bn_FusedBatchNormV3_nchw_bias_0_to_fp16, dilations = sequential_resnet50_conv4_block4_2_conv_Conv2Dx_dilations_0, groups = sequential_resnet50_conv4_block4_2_conv_Conv2Dx_groups_0, pad = sequential_resnet50_conv4_block4_2_conv_Conv2Dx_pad_0, pad_type = sequential_resnet50_conv4_block4_2_conv_Conv2Dx_pad_type_0, strides = sequential_resnet50_conv4_block4_2_conv_Conv2Dx_strides_0, weight = sequential_resnet50_conv4_block4_2_bn_FusedBatchNormV3_nchw_weight_0_to_fp16, x = sequential_resnet50_conv4_block4_1_relu_Relu_cast);
            tensor<fp16, [?, 256, 14, 14]> sequential_resnet50_conv4_block4_2_relu_Relu_cast = relu(x = sequential_resnet50_conv4_block4_2_bn_FusedBatchNormV3_nchw_cast);
            tensor<string, []> sequential_resnet50_conv4_block4_3_conv_Conv2Dx_pad_type_0 = const()[name = tensor<string, []>("sequential_resnet50_conv4_block4_3_conv_Conv2Dx_pad_type_0"), val = tensor<string, []>("valid")];
            tensor<int32, [2]> sequential_resnet50_conv4_block4_3_conv_Conv2Dx_strides_0 = const()[name = tensor<string, []>("sequential_resnet50_conv4_block4_3_conv_Conv2Dx_strides_0"), val = tensor<int32, [2]>([1, 1])];
            tensor<int32, [2]> sequential_resnet50_conv4_block4_3_conv_Conv2Dx_dilations_0 = const()[name = tensor<string, []>("sequential_resnet50_conv4_block4_3_conv_Conv2Dx_dilations_0"), val = tensor<int32, [2]>([1, 1])];
            tensor<int32, []> sequential_resnet50_conv4_block4_3_conv_Conv2Dx_groups_0 = const()[name = tensor<string, []>("sequential_resnet50_conv4_block4_3_conv_Conv2Dx_groups_0"), val = tensor<int32, []>(1)];
            tensor<int32, [4]> sequential_resnet50_conv4_block4_3_conv_Conv2Dx_pad_0 = const()[name = tensor<string, []>("sequential_resnet50_conv4_block4_3_conv_Conv2Dx_pad_0"), val = tensor<int32, [4]>([0, 0, 0, 0])];
            tensor<fp16, [1024, 256, 1, 1]> sequential_resnet50_conv4_block4_3_bn_FusedBatchNormV3_nchw_weight_0_to_fp16 = const()[name = tensor<string, []>("sequential_resnet50_conv4_block4_3_bn_FusedBatchNormV3_nchw_weight_0_to_fp16"), val = tensor<fp16, [1024, 256, 1, 1]>(BLOBFILE(path = tensor<string, []>("@model_path/weights/weight.bin"), offset = tensor<uint64, []>(12071744)))];
            tensor<fp16, [1024]> sequential_resnet50_conv4_block4_3_bn_FusedBatchNormV3_nchw_bias_0_to_fp16 = const()[name = tensor<string, []>("sequential_resnet50_conv4_block4_3_bn_FusedBatchNormV3_nchw_bias_0_to_fp16"), val = tensor<fp16, [1024]>(BLOBFILE(path = tensor<string, []>("@model_path/weights/weight.bin"), offset = tensor<uint64, []>(12596096)))];
            tensor<fp16, [?, 1024, 14, 14]> sequential_resnet50_conv4_block4_3_bn_FusedBatchNormV3_nchw_cast = conv(bias = sequential_resnet50_conv4_block4_3_bn_FusedBatchNormV3_nchw_bias_0_to_fp16, dilations = sequential_resnet50_conv4_block4_3_conv_Conv2Dx_dilations_0, groups = sequential_resnet50_conv4_block4_3_conv_Conv2Dx_groups_0, pad = sequential_resnet50_conv4_block4_3_conv_Conv2Dx_pad_0, pad_type = sequential_resnet50_conv4_block4_3_conv_Conv2Dx_pad_type_0, strides = sequential_resnet50_conv4_block4_3_conv_Conv2Dx_strides_0, weight = sequential_resnet50_conv4_block4_3_bn_FusedBatchNormV3_nchw_weight_0_to_fp16, x = sequential_resnet50_conv4_block4_2_relu_Relu_cast);
            tensor<fp16, [?, 1024, 14, 14]> sequential_resnet50_conv4_block4_add_add_cast = add(x = sequential_resnet50_conv4_block3_out_Relu_cast, y = sequential_resnet50_conv4_block4_3_bn_FusedBatchNormV3_nchw_cast);
            tensor<fp16, [?, 1024, 14, 14]> sequential_resnet50_conv4_block4_out_Relu_cast = relu(x = sequential_resnet50_conv4_block4_add_add_cast);
            tensor<string, []> sequential_resnet50_conv4_block5_1_conv_Conv2Dx_pad_type_0 = const()[name = tensor<string, []>("sequential_resnet50_conv4_block5_1_conv_Conv2Dx_pad_type_0"), val = tensor<string, []>("valid")];
            tensor<int32, [2]> sequential_resnet50_conv4_block5_1_conv_Conv2Dx_strides_0 = const()[name = tensor<string, []>("sequential_resnet50_conv4_block5_1_conv_Conv2Dx_strides_0"), val = tensor<int32, [2]>([1, 1])];
            tensor<int32, [2]> sequential_resnet50_conv4_block5_1_conv_Conv2Dx_dilations_0 = const()[name = tensor<string, []>("sequential_resnet50_conv4_block5_1_conv_Conv2Dx_dilations_0"), val = tensor<int32, [2]>([1, 1])];
            tensor<int32, []> sequential_resnet50_conv4_block5_1_conv_Conv2Dx_groups_0 = const()[name = tensor<string, []>("sequential_resnet50_conv4_block5_1_conv_Conv2Dx_groups_0"), val = tensor<int32, []>(1)];
            tensor<int32, [4]> sequential_resnet50_conv4_block5_1_conv_Conv2Dx_pad_0 = const()[name = tensor<string, []>("sequential_resnet50_conv4_block5_1_conv_Conv2Dx_pad_0"), val = tensor<int32, [4]>([0, 0, 0, 0])];
            tensor<fp16, [256, 1024, 1, 1]> sequential_resnet50_conv4_block5_1_bn_FusedBatchNormV3_nchw_weight_0_to_fp16 = const()[name = tensor<string, []>("sequential_resnet50_conv4_block5_1_bn_FusedBatchNormV3_nchw_weight_0_to_fp16"), val = tensor<fp16, [256, 1024, 1, 1]>(BLOBFILE(path = tensor<string, []>("@model_path/weights/weight.bin"), offset = tensor<uint64, []>(12598208)))];
            tensor<fp16, [256]> sequential_resnet50_conv4_block5_1_bn_FusedBatchNormV3_nchw_bias_0_to_fp16 = const()[name = tensor<string, []>("sequential_resnet50_conv4_block5_1_bn_FusedBatchNormV3_nchw_bias_0_to_fp16"), val = tensor<fp16, [256]>(BLOBFILE(path = tensor<string, []>("@model_path/weights/weight.bin"), offset = tensor<uint64, []>(13122560)))];
            tensor<fp16, [?, 256, 14, 14]> sequential_resnet50_conv4_block5_1_bn_FusedBatchNormV3_nchw_cast = conv(bias = sequential_resnet50_conv4_block5_1_bn_FusedBatchNormV3_nchw_bias_0_to_fp16, dilations = sequential_resnet50_conv4_block5_1_conv_Conv2Dx_dilations_0, groups = sequential_resnet50_conv4_block5_1_conv_Conv2Dx_groups_0, pad = sequential_resnet50_conv4_block5_1_conv_Conv2Dx_pad_0, pad_type = sequential_resnet50_conv4_block5_1_conv_Conv2Dx_pad_type_0, strides = sequential_resnet50_conv4_block5_1_conv_Conv2Dx_strides_0, weight = sequential_resnet50_conv4_block5_1_bn_FusedBatchNormV3_nchw_weight_0_to_fp16, x = sequential_resnet50_conv4_block4_out_Relu_cast);
            tensor<fp16, [?, 256, 14, 14]> sequential_resnet50_conv4_block5_1_relu_Relu_cast = relu(x = sequential_resnet50_conv4_block5_1_bn_FusedBatchNormV3_nchw_cast);
            tensor<string, []> sequential_resnet50_conv4_block5_2_conv_Conv2Dx_pad_type_0 = const()[name = tensor<string, []>("sequential_resnet50_conv4_block5_2_conv_Conv2Dx_pad_type_0"), val = tensor<string, []>("same")];
            tensor<int32, [2]> sequential_resnet50_conv4_block5_2_conv_Conv2Dx_strides_0 = const()[name = tensor<string, []>("sequential_resnet50_conv4_block5_2_conv_Conv2Dx_strides_0"), val = tensor<int32, [2]>([1, 1])];
            tensor<int32, [2]> sequential_resnet50_conv4_block5_2_conv_Conv2Dx_dilations_0 = const()[name = tensor<string, []>("sequential_resnet50_conv4_block5_2_conv_Conv2Dx_dilations_0"), val = tensor<int32, [2]>([1, 1])];
            tensor<int32, []> sequential_resnet50_conv4_block5_2_conv_Conv2Dx_groups_0 = const()[name = tensor<string, []>("sequential_resnet50_conv4_block5_2_conv_Conv2Dx_groups_0"), val = tensor<int32, []>(1)];
            tensor<int32, [4]> sequential_resnet50_conv4_block5_2_conv_Conv2Dx_pad_0 = const()[name = tensor<string, []>("sequential_resnet50_conv4_block5_2_conv_Conv2Dx_pad_0"), val = tensor<int32, [4]>([0, 0, 0, 0])];
            tensor<fp16, [256, 256, 3, 3]> sequential_resnet50_conv4_block5_2_bn_FusedBatchNormV3_nchw_weight_0_to_fp16 = const()[name = tensor<string, []>("sequential_resnet50_conv4_block5_2_bn_FusedBatchNormV3_nchw_weight_0_to_fp16"), val = tensor<fp16, [256, 256, 3, 3]>(BLOBFILE(path = tensor<string, []>("@model_path/weights/weight.bin"), offset = tensor<uint64, []>(13123136)))];
            tensor<fp16, [256]> sequential_resnet50_conv4_block5_2_bn_FusedBatchNormV3_nchw_bias_0_to_fp16 = const()[name = tensor<string, []>("sequential_resnet50_conv4_block5_2_bn_FusedBatchNormV3_nchw_bias_0_to_fp16"), val = tensor<fp16, [256]>(BLOBFILE(path = tensor<string, []>("@model_path/weights/weight.bin"), offset = tensor<uint64, []>(14302848)))];
            tensor<fp16, [?, 256, 14, 14]> sequential_resnet50_conv4_block5_2_bn_FusedBatchNormV3_nchw_cast = conv(bias = sequential_resnet50_conv4_block5_2_bn_FusedBatchNormV3_nchw_bias_0_to_fp16, dilations = sequential_resnet50_conv4_block5_2_conv_Conv2Dx_dilations_0, groups = sequential_resnet50_conv4_block5_2_conv_Conv2Dx_groups_0, pad = sequential_resnet50_conv4_block5_2_conv_Conv2Dx_pad_0, pad_type = sequential_resnet50_conv4_block5_2_conv_Conv2Dx_pad_type_0, strides = sequential_resnet50_conv4_block5_2_conv_Conv2Dx_strides_0, weight = sequential_resnet50_conv4_block5_2_bn_FusedBatchNormV3_nchw_weight_0_to_fp16, x = sequential_resnet50_conv4_block5_1_relu_Relu_cast);
            tensor<fp16, [?, 256, 14, 14]> sequential_resnet50_conv4_block5_2_relu_Relu_cast = relu(x = sequential_resnet50_conv4_block5_2_bn_FusedBatchNormV3_nchw_cast);
            tensor<string, []> sequential_resnet50_conv4_block5_3_conv_Conv2Dx_pad_type_0 = const()[name = tensor<string, []>("sequential_resnet50_conv4_block5_3_conv_Conv2Dx_pad_type_0"), val = tensor<string, []>("valid")];
            tensor<int32, [2]> sequential_resnet50_conv4_block5_3_conv_Conv2Dx_strides_0 = const()[name = tensor<string, []>("sequential_resnet50_conv4_block5_3_conv_Conv2Dx_strides_0"), val = tensor<int32, [2]>([1, 1])];
            tensor<int32, [2]> sequential_resnet50_conv4_block5_3_conv_Conv2Dx_dilations_0 = const()[name = tensor<string, []>("sequential_resnet50_conv4_block5_3_conv_Conv2Dx_dilations_0"), val = tensor<int32, [2]>([1, 1])];
            tensor<int32, []> sequential_resnet50_conv4_block5_3_conv_Conv2Dx_groups_0 = const()[name = tensor<string, []>("sequential_resnet50_conv4_block5_3_conv_Conv2Dx_groups_0"), val = tensor<int32, []>(1)];
            tensor<int32, [4]> sequential_resnet50_conv4_block5_3_conv_Conv2Dx_pad_0 = const()[name = tensor<string, []>("sequential_resnet50_conv4_block5_3_conv_Conv2Dx_pad_0"), val = tensor<int32, [4]>([0, 0, 0, 0])];
            tensor<fp16, [1024, 256, 1, 1]> sequential_resnet50_conv4_block5_3_bn_FusedBatchNormV3_nchw_weight_0_to_fp16 = const()[name = tensor<string, []>("sequential_resnet50_conv4_block5_3_bn_FusedBatchNormV3_nchw_weight_0_to_fp16"), val = tensor<fp16, [1024, 256, 1, 1]>(BLOBFILE(path = tensor<string, []>("@model_path/weights/weight.bin"), offset = tensor<uint64, []>(14303424)))];
            tensor<fp16, [1024]> sequential_resnet50_conv4_block5_3_bn_FusedBatchNormV3_nchw_bias_0_to_fp16 = const()[name = tensor<string, []>("sequential_resnet50_conv4_block5_3_bn_FusedBatchNormV3_nchw_bias_0_to_fp16"), val = tensor<fp16, [1024]>(BLOBFILE(path = tensor<string, []>("@model_path/weights/weight.bin"), offset = tensor<uint64, []>(14827776)))];
            tensor<fp16, [?, 1024, 14, 14]> sequential_resnet50_conv4_block5_3_bn_FusedBatchNormV3_nchw_cast = conv(bias = sequential_resnet50_conv4_block5_3_bn_FusedBatchNormV3_nchw_bias_0_to_fp16, dilations = sequential_resnet50_conv4_block5_3_conv_Conv2Dx_dilations_0, groups = sequential_resnet50_conv4_block5_3_conv_Conv2Dx_groups_0, pad = sequential_resnet50_conv4_block5_3_conv_Conv2Dx_pad_0, pad_type = sequential_resnet50_conv4_block5_3_conv_Conv2Dx_pad_type_0, strides = sequential_resnet50_conv4_block5_3_conv_Conv2Dx_strides_0, weight = sequential_resnet50_conv4_block5_3_bn_FusedBatchNormV3_nchw_weight_0_to_fp16, x = sequential_resnet50_conv4_block5_2_relu_Relu_cast);
            tensor<fp16, [?, 1024, 14, 14]> sequential_resnet50_conv4_block5_add_add_cast = add(x = sequential_resnet50_conv4_block4_out_Relu_cast, y = sequential_resnet50_conv4_block5_3_bn_FusedBatchNormV3_nchw_cast);
            tensor<fp16, [?, 1024, 14, 14]> sequential_resnet50_conv4_block5_out_Relu_cast = relu(x = sequential_resnet50_conv4_block5_add_add_cast);
            tensor<string, []> sequential_resnet50_conv4_block6_1_conv_Conv2Dx_pad_type_0 = const()[name = tensor<string, []>("sequential_resnet50_conv4_block6_1_conv_Conv2Dx_pad_type_0"), val = tensor<string, []>("valid")];
            tensor<int32, [2]> sequential_resnet50_conv4_block6_1_conv_Conv2Dx_strides_0 = const()[name = tensor<string, []>("sequential_resnet50_conv4_block6_1_conv_Conv2Dx_strides_0"), val = tensor<int32, [2]>([1, 1])];
            tensor<int32, [2]> sequential_resnet50_conv4_block6_1_conv_Conv2Dx_dilations_0 = const()[name = tensor<string, []>("sequential_resnet50_conv4_block6_1_conv_Conv2Dx_dilations_0"), val = tensor<int32, [2]>([1, 1])];
            tensor<int32, []> sequential_resnet50_conv4_block6_1_conv_Conv2Dx_groups_0 = const()[name = tensor<string, []>("sequential_resnet50_conv4_block6_1_conv_Conv2Dx_groups_0"), val = tensor<int32, []>(1)];
            tensor<int32, [4]> sequential_resnet50_conv4_block6_1_conv_Conv2Dx_pad_0 = const()[name = tensor<string, []>("sequential_resnet50_conv4_block6_1_conv_Conv2Dx_pad_0"), val = tensor<int32, [4]>([0, 0, 0, 0])];
            tensor<fp16, [256, 1024, 1, 1]> sequential_resnet50_conv4_block6_1_bn_FusedBatchNormV3_nchw_weight_0_to_fp16 = const()[name = tensor<string, []>("sequential_resnet50_conv4_block6_1_bn_FusedBatchNormV3_nchw_weight_0_to_fp16"), val = tensor<fp16, [256, 1024, 1, 1]>(BLOBFILE(path = tensor<string, []>("@model_path/weights/weight.bin"), offset = tensor<uint64, []>(14829888)))];
            tensor<fp16, [256]> sequential_resnet50_conv4_block6_1_bn_FusedBatchNormV3_nchw_bias_0_to_fp16 = const()[name = tensor<string, []>("sequential_resnet50_conv4_block6_1_bn_FusedBatchNormV3_nchw_bias_0_to_fp16"), val = tensor<fp16, [256]>(BLOBFILE(path = tensor<string, []>("@model_path/weights/weight.bin"), offset = tensor<uint64, []>(15354240)))];
            tensor<fp16, [?, 256, 14, 14]> sequential_resnet50_conv4_block6_1_bn_FusedBatchNormV3_nchw_cast = conv(bias = sequential_resnet50_conv4_block6_1_bn_FusedBatchNormV3_nchw_bias_0_to_fp16, dilations = sequential_resnet50_conv4_block6_1_conv_Conv2Dx_dilations_0, groups = sequential_resnet50_conv4_block6_1_conv_Conv2Dx_groups_0, pad = sequential_resnet50_conv4_block6_1_conv_Conv2Dx_pad_0, pad_type = sequential_resnet50_conv4_block6_1_conv_Conv2Dx_pad_type_0, strides = sequential_resnet50_conv4_block6_1_conv_Conv2Dx_strides_0, weight = sequential_resnet50_conv4_block6_1_bn_FusedBatchNormV3_nchw_weight_0_to_fp16, x = sequential_resnet50_conv4_block5_out_Relu_cast);
            tensor<fp16, [?, 256, 14, 14]> sequential_resnet50_conv4_block6_1_relu_Relu_cast = relu(x = sequential_resnet50_conv4_block6_1_bn_FusedBatchNormV3_nchw_cast);
            tensor<string, []> sequential_resnet50_conv4_block6_2_conv_Conv2Dx_pad_type_0 = const()[name = tensor<string, []>("sequential_resnet50_conv4_block6_2_conv_Conv2Dx_pad_type_0"), val = tensor<string, []>("same")];
            tensor<int32, [2]> sequential_resnet50_conv4_block6_2_conv_Conv2Dx_strides_0 = const()[name = tensor<string, []>("sequential_resnet50_conv4_block6_2_conv_Conv2Dx_strides_0"), val = tensor<int32, [2]>([1, 1])];
            tensor<int32, [2]> sequential_resnet50_conv4_block6_2_conv_Conv2Dx_dilations_0 = const()[name = tensor<string, []>("sequential_resnet50_conv4_block6_2_conv_Conv2Dx_dilations_0"), val = tensor<int32, [2]>([1, 1])];
            tensor<int32, []> sequential_resnet50_conv4_block6_2_conv_Conv2Dx_groups_0 = const()[name = tensor<string, []>("sequential_resnet50_conv4_block6_2_conv_Conv2Dx_groups_0"), val = tensor<int32, []>(1)];
            tensor<int32, [4]> sequential_resnet50_conv4_block6_2_conv_Conv2Dx_pad_0 = const()[name = tensor<string, []>("sequential_resnet50_conv4_block6_2_conv_Conv2Dx_pad_0"), val = tensor<int32, [4]>([0, 0, 0, 0])];
            tensor<fp16, [256, 256, 3, 3]> sequential_resnet50_conv4_block6_2_bn_FusedBatchNormV3_nchw_weight_0_to_fp16 = const()[name = tensor<string, []>("sequential_resnet50_conv4_block6_2_bn_FusedBatchNormV3_nchw_weight_0_to_fp16"), val = tensor<fp16, [256, 256, 3, 3]>(BLOBFILE(path = tensor<string, []>("@model_path/weights/weight.bin"), offset = tensor<uint64, []>(15354816)))];
            tensor<fp16, [256]> sequential_resnet50_conv4_block6_2_bn_FusedBatchNormV3_nchw_bias_0_to_fp16 = const()[name = tensor<string, []>("sequential_resnet50_conv4_block6_2_bn_FusedBatchNormV3_nchw_bias_0_to_fp16"), val = tensor<fp16, [256]>(BLOBFILE(path = tensor<string, []>("@model_path/weights/weight.bin"), offset = tensor<uint64, []>(16534528)))];
            tensor<fp16, [?, 256, 14, 14]> sequential_resnet50_conv4_block6_2_bn_FusedBatchNormV3_nchw_cast = conv(bias = sequential_resnet50_conv4_block6_2_bn_FusedBatchNormV3_nchw_bias_0_to_fp16, dilations = sequential_resnet50_conv4_block6_2_conv_Conv2Dx_dilations_0, groups = sequential_resnet50_conv4_block6_2_conv_Conv2Dx_groups_0, pad = sequential_resnet50_conv4_block6_2_conv_Conv2Dx_pad_0, pad_type = sequential_resnet50_conv4_block6_2_conv_Conv2Dx_pad_type_0, strides = sequential_resnet50_conv4_block6_2_conv_Conv2Dx_strides_0, weight = sequential_resnet50_conv4_block6_2_bn_FusedBatchNormV3_nchw_weight_0_to_fp16, x = sequential_resnet50_conv4_block6_1_relu_Relu_cast);
            tensor<fp16, [?, 256, 14, 14]> sequential_resnet50_conv4_block6_2_relu_Relu_cast = relu(x = sequential_resnet50_conv4_block6_2_bn_FusedBatchNormV3_nchw_cast);
            tensor<string, []> sequential_resnet50_conv4_block6_3_conv_Conv2Dx_pad_type_0 = const()[name = tensor<string, []>("sequential_resnet50_conv4_block6_3_conv_Conv2Dx_pad_type_0"), val = tensor<string, []>("valid")];
            tensor<int32, [2]> sequential_resnet50_conv4_block6_3_conv_Conv2Dx_strides_0 = const()[name = tensor<string, []>("sequential_resnet50_conv4_block6_3_conv_Conv2Dx_strides_0"), val = tensor<int32, [2]>([1, 1])];
            tensor<int32, [2]> sequential_resnet50_conv4_block6_3_conv_Conv2Dx_dilations_0 = const()[name = tensor<string, []>("sequential_resnet50_conv4_block6_3_conv_Conv2Dx_dilations_0"), val = tensor<int32, [2]>([1, 1])];
            tensor<int32, []> sequential_resnet50_conv4_block6_3_conv_Conv2Dx_groups_0 = const()[name = tensor<string, []>("sequential_resnet50_conv4_block6_3_conv_Conv2Dx_groups_0"), val = tensor<int32, []>(1)];
            tensor<int32, [4]> sequential_resnet50_conv4_block6_3_conv_Conv2Dx_pad_0 = const()[name = tensor<string, []>("sequential_resnet50_conv4_block6_3_conv_Conv2Dx_pad_0"), val = tensor<int32, [4]>([0, 0, 0, 0])];
            tensor<fp16, [1024, 256, 1, 1]> sequential_resnet50_conv4_block6_3_bn_FusedBatchNormV3_nchw_weight_0_to_fp16 = const()[name = tensor<string, []>("sequential_resnet50_conv4_block6_3_bn_FusedBatchNormV3_nchw_weight_0_to_fp16"), val = tensor<fp16, [1024, 256, 1, 1]>(BLOBFILE(path = tensor<string, []>("@model_path/weights/weight.bin"), offset = tensor<uint64, []>(16535104)))];
            tensor<fp16, [1024]> sequential_resnet50_conv4_block6_3_bn_FusedBatchNormV3_nchw_bias_0_to_fp16 = const()[name = tensor<string, []>("sequential_resnet50_conv4_block6_3_bn_FusedBatchNormV3_nchw_bias_0_to_fp16"), val = tensor<fp16, [1024]>(BLOBFILE(path = tensor<string, []>("@model_path/weights/weight.bin"), offset = tensor<uint64, []>(17059456)))];
            tensor<fp16, [?, 1024, 14, 14]> sequential_resnet50_conv4_block6_3_bn_FusedBatchNormV3_nchw_cast = conv(bias = sequential_resnet50_conv4_block6_3_bn_FusedBatchNormV3_nchw_bias_0_to_fp16, dilations = sequential_resnet50_conv4_block6_3_conv_Conv2Dx_dilations_0, groups = sequential_resnet50_conv4_block6_3_conv_Conv2Dx_groups_0, pad = sequential_resnet50_conv4_block6_3_conv_Conv2Dx_pad_0, pad_type = sequential_resnet50_conv4_block6_3_conv_Conv2Dx_pad_type_0, strides = sequential_resnet50_conv4_block6_3_conv_Conv2Dx_strides_0, weight = sequential_resnet50_conv4_block6_3_bn_FusedBatchNormV3_nchw_weight_0_to_fp16, x = sequential_resnet50_conv4_block6_2_relu_Relu_cast);
            tensor<fp16, [?, 1024, 14, 14]> sequential_resnet50_conv4_block6_add_add_cast = add(x = sequential_resnet50_conv4_block5_out_Relu_cast, y = sequential_resnet50_conv4_block6_3_bn_FusedBatchNormV3_nchw_cast);
            tensor<fp16, [?, 1024, 14, 14]> sequential_resnet50_conv4_block6_out_Relu_cast = relu(x = sequential_resnet50_conv4_block6_add_add_cast);
            tensor<string, []> sequential_resnet50_conv5_block1_0_conv_Conv2Dx_pad_type_0 = const()[name = tensor<string, []>("sequential_resnet50_conv5_block1_0_conv_Conv2Dx_pad_type_0"), val = tensor<string, []>("valid")];
            tensor<int32, [2]> sequential_resnet50_conv5_block1_0_conv_Conv2Dx_strides_0 = const()[name = tensor<string, []>("sequential_resnet50_conv5_block1_0_conv_Conv2Dx_strides_0"), val = tensor<int32, [2]>([2, 2])];
            tensor<int32, [2]> sequential_resnet50_conv5_block1_0_conv_Conv2Dx_dilations_0 = const()[name = tensor<string, []>("sequential_resnet50_conv5_block1_0_conv_Conv2Dx_dilations_0"), val = tensor<int32, [2]>([1, 1])];
            tensor<int32, []> sequential_resnet50_conv5_block1_0_conv_Conv2Dx_groups_0 = const()[name = tensor<string, []>("sequential_resnet50_conv5_block1_0_conv_Conv2Dx_groups_0"), val = tensor<int32, []>(1)];
            tensor<int32, [4]> sequential_resnet50_conv5_block1_0_conv_Conv2Dx_pad_0 = const()[name = tensor<string, []>("sequential_resnet50_conv5_block1_0_conv_Conv2Dx_pad_0"), val = tensor<int32, [4]>([0, 0, 0, 0])];
            tensor<fp16, [2048, 1024, 1, 1]> sequential_resnet50_conv5_block1_0_bn_FusedBatchNormV3_nchw_weight_0_to_fp16 = const()[name = tensor<string, []>("sequential_resnet50_conv5_block1_0_bn_FusedBatchNormV3_nchw_weight_0_to_fp16"), val = tensor<fp16, [2048, 1024, 1, 1]>(BLOBFILE(path = tensor<string, []>("@model_path/weights/weight.bin"), offset = tensor<uint64, []>(17061568)))];
            tensor<fp16, [2048]> sequential_resnet50_conv5_block1_0_bn_FusedBatchNormV3_nchw_bias_0_to_fp16 = const()[name = tensor<string, []>("sequential_resnet50_conv5_block1_0_bn_FusedBatchNormV3_nchw_bias_0_to_fp16"), val = tensor<fp16, [2048]>(BLOBFILE(path = tensor<string, []>("@model_path/weights/weight.bin"), offset = tensor<uint64, []>(21255936)))];
            tensor<fp16, [?, 2048, 7, 7]> sequential_resnet50_conv5_block1_0_bn_FusedBatchNormV3_nchw_cast = conv(bias = sequential_resnet50_conv5_block1_0_bn_FusedBatchNormV3_nchw_bias_0_to_fp16, dilations = sequential_resnet50_conv5_block1_0_conv_Conv2Dx_dilations_0, groups = sequential_resnet50_conv5_block1_0_conv_Conv2Dx_groups_0, pad = sequential_resnet50_conv5_block1_0_conv_Conv2Dx_pad_0, pad_type = sequential_resnet50_conv5_block1_0_conv_Conv2Dx_pad_type_0, strides = sequential_resnet50_conv5_block1_0_conv_Conv2Dx_strides_0, weight = sequential_resnet50_conv5_block1_0_bn_FusedBatchNormV3_nchw_weight_0_to_fp16, x = sequential_resnet50_conv4_block6_out_Relu_cast);
            tensor<string, []> sequential_resnet50_conv5_block1_1_conv_Conv2Dx_pad_type_0 = const()[name = tensor<string, []>("sequential_resnet50_conv5_block1_1_conv_Conv2Dx_pad_type_0"), val = tensor<string, []>("valid")];
            tensor<int32, [2]> sequential_resnet50_conv5_block1_1_conv_Conv2Dx_strides_0 = const()[name = tensor<string, []>("sequential_resnet50_conv5_block1_1_conv_Conv2Dx_strides_0"), val = tensor<int32, [2]>([2, 2])];
            tensor<int32, [2]> sequential_resnet50_conv5_block1_1_conv_Conv2Dx_dilations_0 = const()[name = tensor<string, []>("sequential_resnet50_conv5_block1_1_conv_Conv2Dx_dilations_0"), val = tensor<int32, [2]>([1, 1])];
            tensor<int32, []> sequential_resnet50_conv5_block1_1_conv_Conv2Dx_groups_0 = const()[name = tensor<string, []>("sequential_resnet50_conv5_block1_1_conv_Conv2Dx_groups_0"), val = tensor<int32, []>(1)];
            tensor<int32, [4]> sequential_resnet50_conv5_block1_1_conv_Conv2Dx_pad_0 = const()[name = tensor<string, []>("sequential_resnet50_conv5_block1_1_conv_Conv2Dx_pad_0"), val = tensor<int32, [4]>([0, 0, 0, 0])];
            tensor<fp16, [512, 1024, 1, 1]> sequential_resnet50_conv5_block1_1_bn_FusedBatchNormV3_nchw_weight_0_to_fp16 = const()[name = tensor<string, []>("sequential_resnet50_conv5_block1_1_bn_FusedBatchNormV3_nchw_weight_0_to_fp16"), val = tensor<fp16, [512, 1024, 1, 1]>(BLOBFILE(path = tensor<string, []>("@model_path/weights/weight.bin"), offset = tensor<uint64, []>(21260096)))];
            tensor<fp16, [512]> sequential_resnet50_conv5_block1_1_bn_FusedBatchNormV3_nchw_bias_0_to_fp16 = const()[name = tensor<string, []>("sequential_resnet50_conv5_block1_1_bn_FusedBatchNormV3_nchw_bias_0_to_fp16"), val = tensor<fp16, [512]>(BLOBFILE(path = tensor<string, []>("@model_path/weights/weight.bin"), offset = tensor<uint64, []>(22308736)))];
            tensor<fp16, [?, 512, 7, 7]> sequential_resnet50_conv5_block1_1_bn_FusedBatchNormV3_nchw_cast = conv(bias = sequential_resnet50_conv5_block1_1_bn_FusedBatchNormV3_nchw_bias_0_to_fp16, dilations = sequential_resnet50_conv5_block1_1_conv_Conv2Dx_dilations_0, groups = sequential_resnet50_conv5_block1_1_conv_Conv2Dx_groups_0, pad = sequential_resnet50_conv5_block1_1_conv_Conv2Dx_pad_0, pad_type = sequential_resnet50_conv5_block1_1_conv_Conv2Dx_pad_type_0, strides = sequential_resnet50_conv5_block1_1_conv_Conv2Dx_strides_0, weight = sequential_resnet50_conv5_block1_1_bn_FusedBatchNormV3_nchw_weight_0_to_fp16, x = sequential_resnet50_conv4_block6_out_Relu_cast);
            tensor<fp16, [?, 512, 7, 7]> sequential_resnet50_conv5_block1_1_relu_Relu_cast = relu(x = sequential_resnet50_conv5_block1_1_bn_FusedBatchNormV3_nchw_cast);
            tensor<string, []> sequential_resnet50_conv5_block1_2_conv_Conv2Dx_pad_type_0 = const()[name = tensor<string, []>("sequential_resnet50_conv5_block1_2_conv_Conv2Dx_pad_type_0"), val = tensor<string, []>("same")];
            tensor<int32, [2]> sequential_resnet50_conv5_block1_2_conv_Conv2Dx_strides_0 = const()[name = tensor<string, []>("sequential_resnet50_conv5_block1_2_conv_Conv2Dx_strides_0"), val = tensor<int32, [2]>([1, 1])];
            tensor<int32, [2]> sequential_resnet50_conv5_block1_2_conv_Conv2Dx_dilations_0 = const()[name = tensor<string, []>("sequential_resnet50_conv5_block1_2_conv_Conv2Dx_dilations_0"), val = tensor<int32, [2]>([1, 1])];
            tensor<int32, []> sequential_resnet50_conv5_block1_2_conv_Conv2Dx_groups_0 = const()[name = tensor<string, []>("sequential_resnet50_conv5_block1_2_conv_Conv2Dx_groups_0"), val = tensor<int32, []>(1)];
            tensor<int32, [4]> sequential_resnet50_conv5_block1_2_conv_Conv2Dx_pad_0 = const()[name = tensor<string, []>("sequential_resnet50_conv5_block1_2_conv_Conv2Dx_pad_0"), val = tensor<int32, [4]>([0, 0, 0, 0])];
            tensor<fp16, [512, 512, 3, 3]> sequential_resnet50_conv5_block1_2_bn_FusedBatchNormV3_nchw_weight_0_to_fp16 = const()[name = tensor<string, []>("sequential_resnet50_conv5_block1_2_bn_FusedBatchNormV3_nchw_weight_0_to_fp16"), val = tensor<fp16, [512, 512, 3, 3]>(BLOBFILE(path = tensor<string, []>("@model_path/weights/weight.bin"), offset = tensor<uint64, []>(22309824)))];
            tensor<fp16, [512]> sequential_resnet50_conv5_block1_2_bn_FusedBatchNormV3_nchw_bias_0_to_fp16 = const()[name = tensor<string, []>("sequential_resnet50_conv5_block1_2_bn_FusedBatchNormV3_nchw_bias_0_to_fp16"), val = tensor<fp16, [512]>(BLOBFILE(path = tensor<string, []>("@model_path/weights/weight.bin"), offset = tensor<uint64, []>(27028480)))];
            tensor<fp16, [?, 512, 7, 7]> sequential_resnet50_conv5_block1_2_bn_FusedBatchNormV3_nchw_cast = conv(bias = sequential_resnet50_conv5_block1_2_bn_FusedBatchNormV3_nchw_bias_0_to_fp16, dilations = sequential_resnet50_conv5_block1_2_conv_Conv2Dx_dilations_0, groups = sequential_resnet50_conv5_block1_2_conv_Conv2Dx_groups_0, pad = sequential_resnet50_conv5_block1_2_conv_Conv2Dx_pad_0, pad_type = sequential_resnet50_conv5_block1_2_conv_Conv2Dx_pad_type_0, strides = sequential_resnet50_conv5_block1_2_conv_Conv2Dx_strides_0, weight = sequential_resnet50_conv5_block1_2_bn_FusedBatchNormV3_nchw_weight_0_to_fp16, x = sequential_resnet50_conv5_block1_1_relu_Relu_cast);
            tensor<fp16, [?, 512, 7, 7]> sequential_resnet50_conv5_block1_2_relu_Relu_cast = relu(x = sequential_resnet50_conv5_block1_2_bn_FusedBatchNormV3_nchw_cast);
            tensor<string, []> sequential_resnet50_conv5_block1_3_conv_Conv2Dx_pad_type_0 = const()[name = tensor<string, []>("sequential_resnet50_conv5_block1_3_conv_Conv2Dx_pad_type_0"), val = tensor<string, []>("valid")];
            tensor<int32, [2]> sequential_resnet50_conv5_block1_3_conv_Conv2Dx_strides_0 = const()[name = tensor<string, []>("sequential_resnet50_conv5_block1_3_conv_Conv2Dx_strides_0"), val = tensor<int32, [2]>([1, 1])];
            tensor<int32, [2]> sequential_resnet50_conv5_block1_3_conv_Conv2Dx_dilations_0 = const()[name = tensor<string, []>("sequential_resnet50_conv5_block1_3_conv_Conv2Dx_dilations_0"), val = tensor<int32, [2]>([1, 1])];
            tensor<int32, []> sequential_resnet50_conv5_block1_3_conv_Conv2Dx_groups_0 = const()[name = tensor<string, []>("sequential_resnet50_conv5_block1_3_conv_Conv2Dx_groups_0"), val = tensor<int32, []>(1)];
            tensor<int32, [4]> sequential_resnet50_conv5_block1_3_conv_Conv2Dx_pad_0 = const()[name = tensor<string, []>("sequential_resnet50_conv5_block1_3_conv_Conv2Dx_pad_0"), val = tensor<int32, [4]>([0, 0, 0, 0])];
            tensor<fp16, [2048, 512, 1, 1]> sequential_resnet50_conv5_block1_3_bn_FusedBatchNormV3_nchw_weight_0_to_fp16 = const()[name = tensor<string, []>("sequential_resnet50_conv5_block1_3_bn_FusedBatchNormV3_nchw_weight_0_to_fp16"), val = tensor<fp16, [2048, 512, 1, 1]>(BLOBFILE(path = tensor<string, []>("@model_path/weights/weight.bin"), offset = tensor<uint64, []>(27029568)))];
            tensor<fp16, [2048]> sequential_resnet50_conv5_block1_3_bn_FusedBatchNormV3_nchw_bias_0_to_fp16 = const()[name = tensor<string, []>("sequential_resnet50_conv5_block1_3_bn_FusedBatchNormV3_nchw_bias_0_to_fp16"), val = tensor<fp16, [2048]>(BLOBFILE(path = tensor<string, []>("@model_path/weights/weight.bin"), offset = tensor<uint64, []>(29126784)))];
            tensor<fp16, [?, 2048, 7, 7]> sequential_resnet50_conv5_block1_3_bn_FusedBatchNormV3_nchw_cast = conv(bias = sequential_resnet50_conv5_block1_3_bn_FusedBatchNormV3_nchw_bias_0_to_fp16, dilations = sequential_resnet50_conv5_block1_3_conv_Conv2Dx_dilations_0, groups = sequential_resnet50_conv5_block1_3_conv_Conv2Dx_groups_0, pad = sequential_resnet50_conv5_block1_3_conv_Conv2Dx_pad_0, pad_type = sequential_resnet50_conv5_block1_3_conv_Conv2Dx_pad_type_0, strides = sequential_resnet50_conv5_block1_3_conv_Conv2Dx_strides_0, weight = sequential_resnet50_conv5_block1_3_bn_FusedBatchNormV3_nchw_weight_0_to_fp16, x = sequential_resnet50_conv5_block1_2_relu_Relu_cast);
            tensor<fp16, [?, 2048, 7, 7]> sequential_resnet50_conv5_block1_add_add_cast = add(x = sequential_resnet50_conv5_block1_0_bn_FusedBatchNormV3_nchw_cast, y = sequential_resnet50_conv5_block1_3_bn_FusedBatchNormV3_nchw_cast);
            tensor<fp16, [?, 2048, 7, 7]> sequential_resnet50_conv5_block1_out_Relu_cast = relu(x = sequential_resnet50_conv5_block1_add_add_cast);
            tensor<string, []> sequential_resnet50_conv5_block2_1_conv_Conv2Dx_pad_type_0 = const()[name = tensor<string, []>("sequential_resnet50_conv5_block2_1_conv_Conv2Dx_pad_type_0"), val = tensor<string, []>("valid")];
            tensor<int32, [2]> sequential_resnet50_conv5_block2_1_conv_Conv2Dx_strides_0 = const()[name = tensor<string, []>("sequential_resnet50_conv5_block2_1_conv_Conv2Dx_strides_0"), val = tensor<int32, [2]>([1, 1])];
            tensor<int32, [2]> sequential_resnet50_conv5_block2_1_conv_Conv2Dx_dilations_0 = const()[name = tensor<string, []>("sequential_resnet50_conv5_block2_1_conv_Conv2Dx_dilations_0"), val = tensor<int32, [2]>([1, 1])];
            tensor<int32, []> sequential_resnet50_conv5_block2_1_conv_Conv2Dx_groups_0 = const()[name = tensor<string, []>("sequential_resnet50_conv5_block2_1_conv_Conv2Dx_groups_0"), val = tensor<int32, []>(1)];
            tensor<int32, [4]> sequential_resnet50_conv5_block2_1_conv_Conv2Dx_pad_0 = const()[name = tensor<string, []>("sequential_resnet50_conv5_block2_1_conv_Conv2Dx_pad_0"), val = tensor<int32, [4]>([0, 0, 0, 0])];
            tensor<fp16, [512, 2048, 1, 1]> sequential_resnet50_conv5_block2_1_bn_FusedBatchNormV3_nchw_weight_0_to_fp16 = const()[name = tensor<string, []>("sequential_resnet50_conv5_block2_1_bn_FusedBatchNormV3_nchw_weight_0_to_fp16"), val = tensor<fp16, [512, 2048, 1, 1]>(BLOBFILE(path = tensor<string, []>("@model_path/weights/weight.bin"), offset = tensor<uint64, []>(29130944)))];
            tensor<fp16, [512]> sequential_resnet50_conv5_block2_1_bn_FusedBatchNormV3_nchw_bias_0_to_fp16 = const()[name = tensor<string, []>("sequential_resnet50_conv5_block2_1_bn_FusedBatchNormV3_nchw_bias_0_to_fp16"), val = tensor<fp16, [512]>(BLOBFILE(path = tensor<string, []>("@model_path/weights/weight.bin"), offset = tensor<uint64, []>(31228160)))];
            tensor<fp16, [?, 512, 7, 7]> sequential_resnet50_conv5_block2_1_bn_FusedBatchNormV3_nchw_cast = conv(bias = sequential_resnet50_conv5_block2_1_bn_FusedBatchNormV3_nchw_bias_0_to_fp16, dilations = sequential_resnet50_conv5_block2_1_conv_Conv2Dx_dilations_0, groups = sequential_resnet50_conv5_block2_1_conv_Conv2Dx_groups_0, pad = sequential_resnet50_conv5_block2_1_conv_Conv2Dx_pad_0, pad_type = sequential_resnet50_conv5_block2_1_conv_Conv2Dx_pad_type_0, strides = sequential_resnet50_conv5_block2_1_conv_Conv2Dx_strides_0, weight = sequential_resnet50_conv5_block2_1_bn_FusedBatchNormV3_nchw_weight_0_to_fp16, x = sequential_resnet50_conv5_block1_out_Relu_cast);
            tensor<fp16, [?, 512, 7, 7]> sequential_resnet50_conv5_block2_1_relu_Relu_cast = relu(x = sequential_resnet50_conv5_block2_1_bn_FusedBatchNormV3_nchw_cast);
            tensor<string, []> sequential_resnet50_conv5_block2_2_conv_Conv2Dx_pad_type_0 = const()[name = tensor<string, []>("sequential_resnet50_conv5_block2_2_conv_Conv2Dx_pad_type_0"), val = tensor<string, []>("same")];
            tensor<int32, [2]> sequential_resnet50_conv5_block2_2_conv_Conv2Dx_strides_0 = const()[name = tensor<string, []>("sequential_resnet50_conv5_block2_2_conv_Conv2Dx_strides_0"), val = tensor<int32, [2]>([1, 1])];
            tensor<int32, [2]> sequential_resnet50_conv5_block2_2_conv_Conv2Dx_dilations_0 = const()[name = tensor<string, []>("sequential_resnet50_conv5_block2_2_conv_Conv2Dx_dilations_0"), val = tensor<int32, [2]>([1, 1])];
            tensor<int32, []> sequential_resnet50_conv5_block2_2_conv_Conv2Dx_groups_0 = const()[name = tensor<string, []>("sequential_resnet50_conv5_block2_2_conv_Conv2Dx_groups_0"), val = tensor<int32, []>(1)];
            tensor<int32, [4]> sequential_resnet50_conv5_block2_2_conv_Conv2Dx_pad_0 = const()[name = tensor<string, []>("sequential_resnet50_conv5_block2_2_conv_Conv2Dx_pad_0"), val = tensor<int32, [4]>([0, 0, 0, 0])];
            tensor<fp16, [512, 512, 3, 3]> sequential_resnet50_conv5_block2_2_bn_FusedBatchNormV3_nchw_weight_0_to_fp16 = const()[name = tensor<string, []>("sequential_resnet50_conv5_block2_2_bn_FusedBatchNormV3_nchw_weight_0_to_fp16"), val = tensor<fp16, [512, 512, 3, 3]>(BLOBFILE(path = tensor<string, []>("@model_path/weights/weight.bin"), offset = tensor<uint64, []>(31229248)))];
            tensor<fp16, [512]> sequential_resnet50_conv5_block2_2_bn_FusedBatchNormV3_nchw_bias_0_to_fp16 = const()[name = tensor<string, []>("sequential_resnet50_conv5_block2_2_bn_FusedBatchNormV3_nchw_bias_0_to_fp16"), val = tensor<fp16, [512]>(BLOBFILE(path = tensor<string, []>("@model_path/weights/weight.bin"), offset = tensor<uint64, []>(35947904)))];
            tensor<fp16, [?, 512, 7, 7]> sequential_resnet50_conv5_block2_2_bn_FusedBatchNormV3_nchw_cast = conv(bias = sequential_resnet50_conv5_block2_2_bn_FusedBatchNormV3_nchw_bias_0_to_fp16, dilations = sequential_resnet50_conv5_block2_2_conv_Conv2Dx_dilations_0, groups = sequential_resnet50_conv5_block2_2_conv_Conv2Dx_groups_0, pad = sequential_resnet50_conv5_block2_2_conv_Conv2Dx_pad_0, pad_type = sequential_resnet50_conv5_block2_2_conv_Conv2Dx_pad_type_0, strides = sequential_resnet50_conv5_block2_2_conv_Conv2Dx_strides_0, weight = sequential_resnet50_conv5_block2_2_bn_FusedBatchNormV3_nchw_weight_0_to_fp16, x = sequential_resnet50_conv5_block2_1_relu_Relu_cast);
            tensor<fp16, [?, 512, 7, 7]> sequential_resnet50_conv5_block2_2_relu_Relu_cast = relu(x = sequential_resnet50_conv5_block2_2_bn_FusedBatchNormV3_nchw_cast);
            tensor<string, []> sequential_resnet50_conv5_block2_3_conv_Conv2Dx_pad_type_0 = const()[name = tensor<string, []>("sequential_resnet50_conv5_block2_3_conv_Conv2Dx_pad_type_0"), val = tensor<string, []>("valid")];
            tensor<int32, [2]> sequential_resnet50_conv5_block2_3_conv_Conv2Dx_strides_0 = const()[name = tensor<string, []>("sequential_resnet50_conv5_block2_3_conv_Conv2Dx_strides_0"), val = tensor<int32, [2]>([1, 1])];
            tensor<int32, [2]> sequential_resnet50_conv5_block2_3_conv_Conv2Dx_dilations_0 = const()[name = tensor<string, []>("sequential_resnet50_conv5_block2_3_conv_Conv2Dx_dilations_0"), val = tensor<int32, [2]>([1, 1])];
            tensor<int32, []> sequential_resnet50_conv5_block2_3_conv_Conv2Dx_groups_0 = const()[name = tensor<string, []>("sequential_resnet50_conv5_block2_3_conv_Conv2Dx_groups_0"), val = tensor<int32, []>(1)];
            tensor<int32, [4]> sequential_resnet50_conv5_block2_3_conv_Conv2Dx_pad_0 = const()[name = tensor<string, []>("sequential_resnet50_conv5_block2_3_conv_Conv2Dx_pad_0"), val = tensor<int32, [4]>([0, 0, 0, 0])];
            tensor<fp16, [2048, 512, 1, 1]> sequential_resnet50_conv5_block2_3_bn_FusedBatchNormV3_nchw_weight_0_to_fp16 = const()[name = tensor<string, []>("sequential_resnet50_conv5_block2_3_bn_FusedBatchNormV3_nchw_weight_0_to_fp16"), val = tensor<fp16, [2048, 512, 1, 1]>(BLOBFILE(path = tensor<string, []>("@model_path/weights/weight.bin"), offset = tensor<uint64, []>(35948992)))];
            tensor<fp16, [2048]> sequential_resnet50_conv5_block2_3_bn_FusedBatchNormV3_nchw_bias_0_to_fp16 = const()[name = tensor<string, []>("sequential_resnet50_conv5_block2_3_bn_FusedBatchNormV3_nchw_bias_0_to_fp16"), val = tensor<fp16, [2048]>(BLOBFILE(path = tensor<string, []>("@model_path/weights/weight.bin"), offset = tensor<uint64, []>(38046208)))];
            tensor<fp16, [?, 2048, 7, 7]> sequential_resnet50_conv5_block2_3_bn_FusedBatchNormV3_nchw_cast = conv(bias = sequential_resnet50_conv5_block2_3_bn_FusedBatchNormV3_nchw_bias_0_to_fp16, dilations = sequential_resnet50_conv5_block2_3_conv_Conv2Dx_dilations_0, groups = sequential_resnet50_conv5_block2_3_conv_Conv2Dx_groups_0, pad = sequential_resnet50_conv5_block2_3_conv_Conv2Dx_pad_0, pad_type = sequential_resnet50_conv5_block2_3_conv_Conv2Dx_pad_type_0, strides = sequential_resnet50_conv5_block2_3_conv_Conv2Dx_strides_0, weight = sequential_resnet50_conv5_block2_3_bn_FusedBatchNormV3_nchw_weight_0_to_fp16, x = sequential_resnet50_conv5_block2_2_relu_Relu_cast);
            tensor<fp16, [?, 2048, 7, 7]> sequential_resnet50_conv5_block2_add_add_cast = add(x = sequential_resnet50_conv5_block1_out_Relu_cast, y = sequential_resnet50_conv5_block2_3_bn_FusedBatchNormV3_nchw_cast);
            tensor<fp16, [?, 2048, 7, 7]> sequential_resnet50_conv5_block2_out_Relu_cast = relu(x = sequential_resnet50_conv5_block2_add_add_cast);
            tensor<string, []> sequential_resnet50_conv5_block3_1_conv_Conv2Dx_pad_type_0 = const()[name = tensor<string, []>("sequential_resnet50_conv5_block3_1_conv_Conv2Dx_pad_type_0"), val = tensor<string, []>("valid")];
            tensor<int32, [2]> sequential_resnet50_conv5_block3_1_conv_Conv2Dx_strides_0 = const()[name = tensor<string, []>("sequential_resnet50_conv5_block3_1_conv_Conv2Dx_strides_0"), val = tensor<int32, [2]>([1, 1])];
            tensor<int32, [2]> sequential_resnet50_conv5_block3_1_conv_Conv2Dx_dilations_0 = const()[name = tensor<string, []>("sequential_resnet50_conv5_block3_1_conv_Conv2Dx_dilations_0"), val = tensor<int32, [2]>([1, 1])];
            tensor<int32, []> sequential_resnet50_conv5_block3_1_conv_Conv2Dx_groups_0 = const()[name = tensor<string, []>("sequential_resnet50_conv5_block3_1_conv_Conv2Dx_groups_0"), val = tensor<int32, []>(1)];
            tensor<int32, [4]> sequential_resnet50_conv5_block3_1_conv_Conv2Dx_pad_0 = const()[name = tensor<string, []>("sequential_resnet50_conv5_block3_1_conv_Conv2Dx_pad_0"), val = tensor<int32, [4]>([0, 0, 0, 0])];
            tensor<fp16, [512, 2048, 1, 1]> sequential_resnet50_conv5_block3_1_bn_FusedBatchNormV3_nchw_weight_0_to_fp16 = const()[name = tensor<string, []>("sequential_resnet50_conv5_block3_1_bn_FusedBatchNormV3_nchw_weight_0_to_fp16"), val = tensor<fp16, [512, 2048, 1, 1]>(BLOBFILE(path = tensor<string, []>("@model_path/weights/weight.bin"), offset = tensor<uint64, []>(38050368)))];
            tensor<fp16, [512]> sequential_resnet50_conv5_block3_1_bn_FusedBatchNormV3_nchw_bias_0_to_fp16 = const()[name = tensor<string, []>("sequential_resnet50_conv5_block3_1_bn_FusedBatchNormV3_nchw_bias_0_to_fp16"), val = tensor<fp16, [512]>(BLOBFILE(path = tensor<string, []>("@model_path/weights/weight.bin"), offset = tensor<uint64, []>(40147584)))];
            tensor<fp16, [?, 512, 7, 7]> sequential_resnet50_conv5_block3_1_bn_FusedBatchNormV3_nchw_cast = conv(bias = sequential_resnet50_conv5_block3_1_bn_FusedBatchNormV3_nchw_bias_0_to_fp16, dilations = sequential_resnet50_conv5_block3_1_conv_Conv2Dx_dilations_0, groups = sequential_resnet50_conv5_block3_1_conv_Conv2Dx_groups_0, pad = sequential_resnet50_conv5_block3_1_conv_Conv2Dx_pad_0, pad_type = sequential_resnet50_conv5_block3_1_conv_Conv2Dx_pad_type_0, strides = sequential_resnet50_conv5_block3_1_conv_Conv2Dx_strides_0, weight = sequential_resnet50_conv5_block3_1_bn_FusedBatchNormV3_nchw_weight_0_to_fp16, x = sequential_resnet50_conv5_block2_out_Relu_cast);
            tensor<fp16, [?, 512, 7, 7]> sequential_resnet50_conv5_block3_1_relu_Relu_cast = relu(x = sequential_resnet50_conv5_block3_1_bn_FusedBatchNormV3_nchw_cast);
            tensor<string, []> sequential_resnet50_conv5_block3_2_conv_Conv2Dx_pad_type_0 = const()[name = tensor<string, []>("sequential_resnet50_conv5_block3_2_conv_Conv2Dx_pad_type_0"), val = tensor<string, []>("same")];
            tensor<int32, [2]> sequential_resnet50_conv5_block3_2_conv_Conv2Dx_strides_0 = const()[name = tensor<string, []>("sequential_resnet50_conv5_block3_2_conv_Conv2Dx_strides_0"), val = tensor<int32, [2]>([1, 1])];
            tensor<int32, [2]> sequential_resnet50_conv5_block3_2_conv_Conv2Dx_dilations_0 = const()[name = tensor<string, []>("sequential_resnet50_conv5_block3_2_conv_Conv2Dx_dilations_0"), val = tensor<int32, [2]>([1, 1])];
            tensor<int32, []> sequential_resnet50_conv5_block3_2_conv_Conv2Dx_groups_0 = const()[name = tensor<string, []>("sequential_resnet50_conv5_block3_2_conv_Conv2Dx_groups_0"), val = tensor<int32, []>(1)];
            tensor<int32, [4]> sequential_resnet50_conv5_block3_2_conv_Conv2Dx_pad_0 = const()[name = tensor<string, []>("sequential_resnet50_conv5_block3_2_conv_Conv2Dx_pad_0"), val = tensor<int32, [4]>([0, 0, 0, 0])];
            tensor<fp16, [512, 512, 3, 3]> sequential_resnet50_conv5_block3_2_bn_FusedBatchNormV3_nchw_weight_0_to_fp16 = const()[name = tensor<string, []>("sequential_resnet50_conv5_block3_2_bn_FusedBatchNormV3_nchw_weight_0_to_fp16"), val = tensor<fp16, [512, 512, 3, 3]>(BLOBFILE(path = tensor<string, []>("@model_path/weights/weight.bin"), offset = tensor<uint64, []>(40148672)))];
            tensor<fp16, [512]> sequential_resnet50_conv5_block3_2_bn_FusedBatchNormV3_nchw_bias_0_to_fp16 = const()[name = tensor<string, []>("sequential_resnet50_conv5_block3_2_bn_FusedBatchNormV3_nchw_bias_0_to_fp16"), val = tensor<fp16, [512]>(BLOBFILE(path = tensor<string, []>("@model_path/weights/weight.bin"), offset = tensor<uint64, []>(44867328)))];
            tensor<fp16, [?, 512, 7, 7]> sequential_resnet50_conv5_block3_2_bn_FusedBatchNormV3_nchw_cast = conv(bias = sequential_resnet50_conv5_block3_2_bn_FusedBatchNormV3_nchw_bias_0_to_fp16, dilations = sequential_resnet50_conv5_block3_2_conv_Conv2Dx_dilations_0, groups = sequential_resnet50_conv5_block3_2_conv_Conv2Dx_groups_0, pad = sequential_resnet50_conv5_block3_2_conv_Conv2Dx_pad_0, pad_type = sequential_resnet50_conv5_block3_2_conv_Conv2Dx_pad_type_0, strides = sequential_resnet50_conv5_block3_2_conv_Conv2Dx_strides_0, weight = sequential_resnet50_conv5_block3_2_bn_FusedBatchNormV3_nchw_weight_0_to_fp16, x = sequential_resnet50_conv5_block3_1_relu_Relu_cast);
            tensor<fp16, [?, 512, 7, 7]> sequential_resnet50_conv5_block3_2_relu_Relu_cast = relu(x = sequential_resnet50_conv5_block3_2_bn_FusedBatchNormV3_nchw_cast);
            tensor<string, []> sequential_resnet50_conv5_block3_3_conv_Conv2Dx_pad_type_0 = const()[name = tensor<string, []>("sequential_resnet50_conv5_block3_3_conv_Conv2Dx_pad_type_0"), val = tensor<string, []>("valid")];
            tensor<int32, [2]> sequential_resnet50_conv5_block3_3_conv_Conv2Dx_strides_0 = const()[name = tensor<string, []>("sequential_resnet50_conv5_block3_3_conv_Conv2Dx_strides_0"), val = tensor<int32, [2]>([1, 1])];
            tensor<int32, [2]> sequential_resnet50_conv5_block3_3_conv_Conv2Dx_dilations_0 = const()[name = tensor<string, []>("sequential_resnet50_conv5_block3_3_conv_Conv2Dx_dilations_0"), val = tensor<int32, [2]>([1, 1])];
            tensor<int32, []> sequential_resnet50_conv5_block3_3_conv_Conv2Dx_groups_0 = const()[name = tensor<string, []>("sequential_resnet50_conv5_block3_3_conv_Conv2Dx_groups_0"), val = tensor<int32, []>(1)];
            tensor<int32, [4]> sequential_resnet50_conv5_block3_3_conv_Conv2Dx_pad_0 = const()[name = tensor<string, []>("sequential_resnet50_conv5_block3_3_conv_Conv2Dx_pad_0"), val = tensor<int32, [4]>([0, 0, 0, 0])];
            tensor<fp16, [2048, 512, 1, 1]> sequential_resnet50_conv5_block3_3_bn_FusedBatchNormV3_nchw_weight_0_to_fp16 = const()[name = tensor<string, []>("sequential_resnet50_conv5_block3_3_bn_FusedBatchNormV3_nchw_weight_0_to_fp16"), val = tensor<fp16, [2048, 512, 1, 1]>(BLOBFILE(path = tensor<string, []>("@model_path/weights/weight.bin"), offset = tensor<uint64, []>(44868416)))];
            tensor<fp16, [2048]> sequential_resnet50_conv5_block3_3_bn_FusedBatchNormV3_nchw_bias_0_to_fp16 = const()[name = tensor<string, []>("sequential_resnet50_conv5_block3_3_bn_FusedBatchNormV3_nchw_bias_0_to_fp16"), val = tensor<fp16, [2048]>(BLOBFILE(path = tensor<string, []>("@model_path/weights/weight.bin"), offset = tensor<uint64, []>(46965632)))];
            tensor<fp16, [?, 2048, 7, 7]> sequential_resnet50_conv5_block3_3_bn_FusedBatchNormV3_nchw_cast = conv(bias = sequential_resnet50_conv5_block3_3_bn_FusedBatchNormV3_nchw_bias_0_to_fp16, dilations = sequential_resnet50_conv5_block3_3_conv_Conv2Dx_dilations_0, groups = sequential_resnet50_conv5_block3_3_conv_Conv2Dx_groups_0, pad = sequential_resnet50_conv5_block3_3_conv_Conv2Dx_pad_0, pad_type = sequential_resnet50_conv5_block3_3_conv_Conv2Dx_pad_type_0, strides = sequential_resnet50_conv5_block3_3_conv_Conv2Dx_strides_0, weight = sequential_resnet50_conv5_block3_3_bn_FusedBatchNormV3_nchw_weight_0_to_fp16, x = sequential_resnet50_conv5_block3_2_relu_Relu_cast);
            tensor<fp16, [?, 2048, 7, 7]> sequential_resnet50_conv5_block3_add_add_cast = add(x = sequential_resnet50_conv5_block2_out_Relu_cast, y = sequential_resnet50_conv5_block3_3_bn_FusedBatchNormV3_nchw_cast);
            tensor<fp16, [?, 2048, 7, 7]> sequential_resnet50_conv5_block3_out_Relu_cast = relu(x = sequential_resnet50_conv5_block3_add_add_cast);
            tensor<int32, [2]> sequential_resnet50_avg_pool_Mean_axes_0 = const()[name = tensor<string, []>("sequential_resnet50_avg_pool_Mean_axes_0"), val = tensor<int32, [2]>([1, 2])];
            tensor<bool, []> sequential_resnet50_avg_pool_Mean_keep_dims_0 = const()[name = tensor<string, []>("sequential_resnet50_avg_pool_Mean_keep_dims_0"), val = tensor<bool, []>(false)];
            tensor<int32, [4]> transpose_162_perm_0 = const()[name = tensor<string, []>("transpose_162_perm_0"), val = tensor<int32, [4]>([0, 2, 3, 1])];
            tensor<fp16, [?, 7, 7, 2048]> transpose_163 = transpose(perm = transpose_162_perm_0, x = sequential_resnet50_conv5_block3_out_Relu_cast);
            tensor<fp16, [?, 2048]> sequential_resnet50_avg_pool_Mean_cast = reduce_mean(axes = sequential_resnet50_avg_pool_Mean_axes_0, keep_dims = sequential_resnet50_avg_pool_Mean_keep_dims_0, x = transpose_163);
            tensor<fp16, [38, 2048]> transpose_160_cast_to_fp32_to_fp16 = const()[name = tensor<string, []>("transpose_160_cast_to_fp32_to_fp16"), val = tensor<fp16, [38, 2048]>(BLOBFILE(path = tensor<string, []>("@model_path/weights/weight.bin"), offset = tensor<uint64, []>(46969792)))];
            tensor<fp16, [38]> sequential_dense_BiasAdd_bias_0_to_fp16 = const()[name = tensor<string, []>("sequential_dense_BiasAdd_bias_0_to_fp16"), val = tensor<fp16, [38]>(BLOBFILE(path = tensor<string, []>("@model_path/weights/weight.bin"), offset = tensor<uint64, []>(47125504)))];
            tensor<fp16, [?, 38]> sequential_dense_BiasAdd_cast = linear(bias = sequential_dense_BiasAdd_bias_0_to_fp16, weight = transpose_160_cast_to_fp32_to_fp16, x = sequential_resnet50_avg_pool_Mean_cast);
            tensor<int32, []> sequential_dense_Softmax_axis_0 = const()[name = tensor<string, []>("sequential_dense_Softmax_axis_0"), val = tensor<int32, []>(-1)];
            tensor<fp16, [?, 38]> sequential_dense_Softmax_cast = softmax(axis = sequential_dense_Softmax_axis_0, x = sequential_dense_BiasAdd_cast);
            tensor<string, []> sequential_dense_Softmax_cast_to_fp32_dtype_0 = const()[name = tensor<string, []>("sequential_dense_Softmax_cast_to_fp32_dtype_0"), val = tensor<string, []>("fp32")];
            tensor<fp32, [?, 38]> Identity = cast(dtype = sequential_dense_Softmax_cast_to_fp32_dtype_0, x = sequential_dense_Softmax_cast);
        } -> (Identity);
}